data.pth (torch, 10275 bytes, 18 tensors)

l1.weight f4 [8, 28]
0.65682757 0.3843962 -0.2063883 -0.44515657 0.5757516 -0.18413778 0.10706392 0.37252277
-0.33771512 0.84480333 -0.5288324 0.40348688 -0.5288043 -0.5287876 -0.2060205 -0.25846708
0.06128402 -0.05061451 0.54209274 0.61916965 0.12347182 0.57649904 0.3175643 0.34766728
1.028998 0.3708 -0.05822975 0.48204368 -0.057960402 0.48892996 -0.115961835 -0.11957612
0.5278383 -0.107905366 0.2605178 0.29196426 -0.14181331 0.4436879 -0.24995127 -0.17716461
-0.24996075 -0.2499838 -0.40813538 0.03213817 0.45610037 0.4703137 0.3151612 -0.31071886
0.5871652 0.57568043 0.2737288 0.6148882 -0.37019742 -0.014997897 -0.16614506 0.28249085
-0.009667696 -0.010235538 0.07145838 -0.11170834 -0.04985246 -0.18449888 0.020483673 0.007837058
-0.14475663 0.0241303 0.14048457 0.0519451 0.14532308 -0.0058217086 -0.011003137 -0.032609284
-0.004092798 0.07381331 -0.10633844 0.050308704 -0.076881334 0.16860852 -0.0472231 -0.13000202
-0.10462558 -0.036717027 0.09367755 0.062810875 -0.21505234 -0.23003647 0.45456794 0.5163989
0.9352606 0.5007169 -0.31131527 -0.07950487 0.34075567 0.49623075 0.3004 -0.11623088
0.28947425 0.56401026 0.3792575 0.46529976 0.05975348 -0.14064099 0.38633248 0.008213756
-0.29456422 0.64805675 -0.09044055 -0.15849416 -0.6221583 -0.2915236 0.3543303 -0.00067422644
-0.092642516 -0.27410108 0.12131307 0.26940188 0.75682646 0.4833961 -0.27818874 -0.13458714
0.26859403 0.94009316 0.33873293 0.0206474 0.5221649 0.39274874 0.3709573 0.4556591
-0.29172778 -0.086068034 0.41261542 -0.16312668 -0.11233098 0.6156841 -0.27390325 -0.2416481
-0.26261958 0.12956628 0.17898065 0.16795495 -0.021248605 0.34118244 0.43686855 0.46602434
-0.6058694 0.52895653 0.41915548 0.5147836 0.5679588 -0.6058659 0.60346663 -0.26415747
0.7378781 0.7785379 0.59518826 0.30534446 0.57662016 0.60123354 -0.3724254 0.05513065
0.54172343 -0.39391673 0.5863704 0.6094117 -0.45107624 -0.14024423 0.5289326 0.24469891
0.57901776 0.10202764 0.0440967 -0.31695598 -0.5243685 0.03240369 -0.39281496 -0.17816812
-0.18294977 -0.6219628 -0.5141961 0.58407235 -0.47504503 -0.33020252 -0.17488347 -0.030259235
-0.29034135 -0.44658026 -0.115302026 0.58172405 -0.40801322 -0.25540403 -0.010199912 -0.23174444
1.0830168 0.5930744 0.07560053 0.33313176 -0.18521823 0.54578555 0.022041595 -0.3555328
0.7829796 -0.15069653 0.50987196 0.57207114 -0.31539682 0.754425 -0.4839464 -0.113956645
-0.48392874 -0.48392916 -0.17436904 -0.21632123 0.6004098 0.31673917 0.31767166 -0.2535603
0.528545 0.26093167 0.38191903 0.49666017 -0.59091973 -0.18558036 -0.2831379 0.106991164
00000000: da25 283f 94cf c43e 7457 53be 90eb e3be
00000010: 7564 133f 9d8e 3cbe 5444 db3d 4ebb be3e
00000020: ffe8 acbe 0845 583f 8f61 07bf d595 ce3e
00000030: b85f 07bf a05e 07bf 0af7 52be cc55 84be
00000040: f404 7b3d 2951 4fbd 97c6 0a3f e781 1e3f
00000050: cbde fc3d 7195 133f ca97 a23e 7201 b23e
00000060: 35b6 833f 7fd9 bd3e 5182 6ebd 6ece f63e
00000070: e367 6dbd 0755 fa3e 667d edbd 53e4 f4bd
00000080: 6920 073f 7dfd dcbd 9762 853e 577c 953e
00000090: 8237 11be 0f2b e33e 3af3 7fbe a46a 35be
000000a0: b6f5 7fbe c1fb 7fbe 1ff7 d0be 50a3 033d
000000b0: fd85 e93e f5cc f03e cf5c a13e 8b16 9fbe
000000c0: 7550 163f cb5f 133f 2e26 8c3e 5069 1d3f
000000d0: 848a bdbe bdb9 75bc ee21 2abe a4a2 903e
000000e0: 4265 1ebc f5b2 27bc c558 923d 58c7 e4bd
000000f0: 1832 4cbd 46ed 3cbe 60cd a73c 0167 003c
00000100: 153b 14be e8ac c53c 30db 0f3e 63c4 543d
00000110: 93cf 143e 08c4 bebb 8046 34bc 5091 05bd
00000120: e11c 86bb 6f2b 973d f8c7 d9bd 8010 4e3d
00000130: f673 9dbd b6a7 2c3e 026d 41bd 401f 05be
00000140: f045 d6bd 9864 16bd 04da bf3d fda2 803d
00000150: ae36 5cbe ae8e 6bbe 21bd e83e b832 043f
00000160: 3d6d 6f3f fc2e 003f b764 9fbe 73d3 a2bd
00000170: 8777 ae3e f511 fe3e 07ce 993e 750a eebd
00000180: f835 943e fa62 103f 0a2e c23e c53b ee3e
00000190: 11c0 743d 3104 10be 5fcd c53e fd92 063c
000001a0: 1fd1 96be 0ce7 253f e538 b9bd 4b4c 22be
000001b0: c445 1fbf 9542 95be c86a b53e 92be 30ba
000001c0: 5cbb bdbd fa56 8cbe fd72 f83d 0bef 893e
000001d0: 61bf 413f b27f f73e c16e 8ebe 36d1 09be
000001e0: 2885 893e f2a9 703f 676e ad3e bc24 a93c
000001f0: 99ac 053f 5d16 c93e 1dee bd3e 264c e93e
00000200: 585d 95be 7044 b0bd 5442 d33e ae0a 27be
00000210: c90d e6bd 799d 1d3f 0c3d 8cbe 9972 77be
00000220: 1376 86be 06ad 043e b446 373e 62fc 2b3e
00000230: 8e11 aebc 77af ae3e 3cad df3e be9a ee3e
00000240: 421a 1bbf b269 073f 8c9b d63e dcc8 033f
00000250: bf65 113f 071a 1bbf ca7c 1a3f a63f 87be
00000260: 94e5 3c3f 434e 473f 425e 183f 1c56 9c3e
00000270: 619d 133f 71ea 193f 8bae bebe add0 613d
00000280: 63ae 0a3f 74af c9be 5f1c 163f 6802 1c3f
00000290: 77f3 e6be 2f9c 0fbe 2068 073f 5a92 7a3e
000002a0: 823a 143f def3 d03d be9e 343d 0e48 a2be
000002b0: 043d 06bf bbb9 043d 0b1f c9be b471 36be
000002c0: 2f57 3bbe f438 1fbf 5ba2 03bf c485 153f
000002d0: 1a39 f3be 4e10 a9be a714 33be 37e2 f7bc
000002e0: 9fa7 94be 2ba6 e4be 7823 ecbd deeb 143f
000002f0: 1ce7 d0be 51c4 82be 881d 27bc 6a4e 6dbe
00000300: 4ba0 8a3f b9d3 173f 73d4 9a3d 3f90 aa3e
00000310: d9a9 3dbe 9ab8 0b3f 9390 b43c 6508 b6be
00000320: 5a71 483f 3150 1abe f886 023f 4173 123f
00000330: b17b a1be ff21 413f d3c7 f7be 1a62 e9bd
00000340: 82c5 f7be 90c5 f7be cc8d 32be 5083 5dbe
00000350: 75b4 193f a32b a23e dca5 a23e a8d2 81be
00000360: ba4e 073f d698 853e e48a c33e 3e4a fe3e
00000370: 8446 17bf c708 3ebe 73f7 90be 2f1e db3d

l1.bias f4 [8]
0.5287968 0.24995527 -0.16125393 0.6228493 0.7620976 0.6058684 0.8280378 0.48391753
00000000: 3a5f 073f 46f4 7f3e c01f 25be 0d73 1f3f
00000010: d418 433f 311a 1b3f 49fa 533f 0ac4 f73e

l2.weight f4 [8, 8]
0.36241937 1.0145255 -0.2683199 0.7459746 0.66655236 -1.1770661 -0.48837897 0.7457319
-0.3397486 -0.0063717184 0.3483134 -0.22872685 -0.06536588 -0.033828955 0.28674302 -0.18386765
-0.08996007 -0.91652596 0.015378402 0.12743844 0.591516 0.9291498 0.8349851 -0.8439117
0.2976678 0.91375226 0.21295635 -0.7824902 -0.8106706 0.9609941 -0.49324676 0.81443703
-0.12690462 -0.2602218 -0.13036214 -0.17862074 -0.21079417 -0.072924204 0.06076429 -0.30650157
1.0470748 0.2010813 0.29184398 -0.22567627 0.44267362 -0.93884975 1.086834 8.533723e-05
-0.029648537 0.28079912 -0.3409261 -0.13896641 0.1999239 -0.27126226 -0.18296106 -0.31319886
-0.48957616 -0.40465534 -0.32837352 0.90246975 1.2140696 0.8313197 -0.3154964 -0.0452702
00000000: 088f b93e f9db 813f 3a61 89be 31f8 3e3f
00000010: 2da3 2a3f 1aaa 96bf cf0c fabe 49e8 3e3f
00000020: 87f3 adbe d9c9 d0bb 2256 b23e 5f37 6abe
00000030: 8cde 85bd 3b90 0abd fbcf 923e cd47 3cbe
00000040: fc3c b8bd 72a1 6abf b1f5 7b3c 397f 023e
00000050: 986d 173f c3dc 6d3f 95c1 553f 990a 58bf
00000060: ea67 983e abeb 693f 3b11 5a3e 4751 48bf
00000070: 1c88 4fbf b603 763f d78a fcbe f27e 503f
00000080: 49f3 01be cb3b 85be a77d 05be 5be8 36be
00000090: 6dda 57be 4959 95bd fae3 783d c6ed 9cbe
000000a0: 8c06 863f 42e8 4d3e 936c 953e ae17 67be
000000b0: 1ea6 e23e 7558 70bf 601d 8b3f 14f7 b238
000000c0: 7de1 f2bc e7c4 8f3e de8d aebe 364d 0ebe
000000d0: dab8 4c3e e3e2 8abe 255a 3bbe 9a5b a0be
000000e0: baa9 fabe fc2e cfbe 9320 a8be 4208 673f
000000f0: a266 9b3f 5ed1 543f bf88 a1be 3f6d 39bd

l2.bias f4 [8]
0.2175049 -0.32664356 0.58223015 0.30578417 -0.32451007 0.5152624 -0.33521026 0.6299457
00000000: 9bb9 5e3e d33d a7be 090d 153f be8f 9c3e
00000010: 2f26 a6be 3de8 033f aea0 abbe 1f44 213f

l3.weight f4 [4, 8]
0.20543973 0.29184636 -0.7018287 0.7720069 0.27727333 -0.61617285 -0.33746576 -0.4733447
1.1123837 0.10108546 -1.0217385 -0.8597615 0.14597422 0.32030445 0.34419167 0.31039363
-0.8239816 -0.23711589 0.8773301 -0.6396091 0.16627285 -0.83730423 0.2341885 0.99758935
-0.88218164 0.017086837 0.61482185 -0.5082208 0.1604818 1.0427972 0.065855965 -1.0272831
00000000: cb5e 523e e36c 953e 0cab 33bf 3fa2 453f
00000010: c5f6 8d3e 81bd 1dbf 50c8 acbe 3d5a f2be
00000020: 9762 8e3f e505 cf3d 54c8 82bf 5419 5cbf
00000030: 447a 153e f2fe a33e e439 b03e eaeb 9e3e
00000040: 75f0 52bf 82ce 72be b598 603f 6cbd 23bf
00000050: 6e43 2a3e 9259 56bf 1ccf 6f3e 0462 7f3f
00000060: a8d6 61bf b2f9 8b3c f764 1d3f c21a 02bf
00000070: 5755 243e 617a 853f 7edf 863d 037e 83bf

l3.bias f4 [4]
-0.05690475 -0.150673 0.22481714 0.40174946
00000000: f514 69bd 064a 1abe 7736 663e 1bb2 cd3e

exp_avg f4 [8, 28]
-1.216729e-05 -4.690317e-06 1.8058745e-06 5.3846825e-06 -3.2965243e-05 4.752852e-06 -1.7554706e-06 -4.1434078e-06
4.752852e-06 -2.498793e-05 5.1603874e-05 -1.0852311e-05 3.5130022e-05 2.5362742e-05 5.3846825e-06 1.8058745e-06
-3.3753365e-06 -1.7554706e-06 2.8825897e-09 -1.3149804e-06 -5.7632756e-06 2.8825897e-09 -4.1434078e-06 -5.7632756e-06
-0.000102747545 -1.0852311e-05 1.8058745e-06 -1.7205488e-05 5.5500874e-07 -1.6194395e-05 2.3381723e-08 4.2901497e-06
-5.884048e-05 4.5157e-06 -1.045221e-05 -1.466964e-05 4.5157e-06 -5.642414e-05 2.5903331e-05 1.3855382e-07
1.6265898e-05 8.77059e-06 4.2901497e-06 2.3381723e-08 -1.661085e-05 -1.045221e-05 -7.1911845e-06 4.1645492e-07
-2.0828278e-05 -7.1911845e-06 -1.466964e-05 -2.0828278e-05 1.6308039e-05 1.3855382e-07 2.3381723e-08 2.5383385e-06
0.0 6e-45 0.0 0.0 0.0 0.0 6e-45 0.0
0.0 0.0 0.0 0.0 6e-45 0.0 0.0 0.0
6e-45 6e-45 6e-45 0.0 0.0 6e-45 0.0 0.0
0.0 0.0 0.0 6e-45 7.68213e-06 1.7290758e-07 -1.332017e-06 -3.5671815e-06
-2.5158322e-05 -3.3460362e-06 1.7290758e-07 1.4850151e-06 -3.3460362e-06 -4.1842726e-05 -3.574873e-05 7.68213e-06
-2.7100876e-05 -2.5320413e-05 -3.5671815e-06 -1.332017e-06 1.7290758e-07 1.7290758e-07 -8.592544e-06 0.0
1.4850151e-06 -8.592544e-06 1.4850151e-06 1.4850151e-06 4.773912e-05 7.68213e-06 -1.332017e-06 -2.7828144e-06
1.6477371e-06 1.6923807e-06 -1.2588828e-06 -3.3264223e-06 -2.758524e-05 -3.667448e-06 1.6923807e-06 1.7508617e-07
-3.667448e-06 -4.1343457e-05 -5.7238143e-05 1.6477371e-06 -3.403777e-05 -2.9977486e-05 -3.3264223e-06 -1.2588828e-06
1.6923807e-06 1.6923807e-06 -7.1615245e-06 0.0 1.7508617e-07 -7.1615245e-06 1.7508617e-07 1.7508617e-07
-2.9747367e-05 1.6477371e-06 -1.2588828e-06 -1.1262604e-05 5.698766e-06 -1.4737793e-05 -2.7037242e-06 -8.19831e-06
7.331886e-05 -7.951022e-06 -7.5596645e-06 -5.3177573e-06 -7.951022e-06 5.011177e-05 -0.00017791084 6.10027e-06
-7.142979e-05 -5.0531566e-05 -8.19831e-06 -2.7037242e-06 -1.433629e-05 -7.5596645e-06 9.110531e-06 -4.0150397e-07
-1.2094384e-05 9.110531e-06 -5.3177573e-06 -1.2094384e-05 3.4102202e-05 6.10027e-06 -2.7037242e-06 -5.7350203e-06
-1.876097e-05 7.631917e-06 9.4266716e-07 2.6784148e-06 1.722989e-05 1.6706242e-06 7.1014542e-06 1.6108493e-06
1.6706242e-06 2.5520447e-05 -5.6610143e-06 -1.6407821e-05 7.641536e-06 9.432587e-06 2.6784148e-06 9.4266716e-07
9.985064e-06 7.1014542e-06 7.379418e-06 -2.3531459e-06 4.4944577e-06 7.379418e-06 1.6108493e-06 4.4944577e-06
-0.00017268187 -1.6407821e-05 9.4266716e-07 -2.4396018e-05 7.8731335e-07 -1.2228809e-05 7.0694216e-07 2.2178608e-06
-4.6456236e-05 2.5389966e-06 -8.187145e-06 -1.1036496e-05 2.5389966e-06 -4.6347584e-05 1.785298e-05 2.856529e-18
1.34644315e-05 1.1261935e-05 2.2178608e-06 7.0694216e-07 -1.3016122e-05 -8.187145e-06 -6.8459476e-06 7.8731335e-07
-1.5865477e-05 -6.8459476e-06 -1.1036496e-05 -1.5865477e-05 1.1838753e-05 2.856529e-18 7.0694216e-07 -1.7637922e-06
00000000: 1d22 4cb7 8461 9db6 6061 f235 12ae b436
00000010: 2944 0ab8 b07a 9f36 839d ebb5 9a07 8bb6
00000020: b07a 9f36 2c9d d1b7 3d71 5838 5212 36b7
00000030: 9358 1338 13c2 d437 12ae b436 6061 f235
00000040: d783 62b6 839d ebb5 0e17 4631 627e b0b5
00000050: 2962 c1b6 0e17 4631 9a07 8bb6 2962 c1b6
00000060: 2b7a d7b8 5212 36b7 6061 f235 8154 90b7
00000070: e9fb 1435 33d9 87b7 f4d8 c832 1bf4 8f36
00000080: 7ccb 76b8 9185 9736 e65b 2fb7 a01d 76b7
00000090: 9185 9736 f6a8 6cb8 fb4a d937 62c5 1434
000000a0: c072 8837 6625 1337 1bf4 8f36 f4d8 c832
000000b0: 8757 8bb7 e65b 2fb7 ce4b f1b6 2195 df34
000000c0: 63b8 aeb7 ce4b f1b6 a01d 76b7 63b8 aeb7
000000d0: 3fcd 8837 62c5 1434 f4d8 c832 5358 2a36
000000e0: 0000 0000 0400 0000 0000 0000 0000 0000
000000f0: 0000 0000 0000 0000 0400 0000 0000 0000
00000100: 0000 0000 0000 0000 0000 0000 0000 0000
00000110: 0400 0000 0000 0000 0000 0000 0000 0000
00000120: 0400 0000 0400 0000 0400 0000 0000 0000
00000130: 0000 0000 0400 0000 0000 0000 0000 0000
00000140: 0000 0000 0000 0000 0000 0000 0400 0000
00000150: 7fe2 0037 79a8 3934 c1c7 b2b5 b663 6fb6
00000160: 160b d3b7 778c 60b6 79a8 3934 bb50 c735
00000170: 778c 60b6 4980 2fb8 e8f0 15b8 7fe2 0037
00000180: b056 e3b7 2c67 d4b7 b663 6fb6 c1c7 b2b5
00000190: 79a8 3934 79a8 3934 b228 10b7 0000 0000
000001a0: bb50 c735 b228 10b7 bb50 c735 bb50 c735
000001b0: 7d3b 4838 7fe2 0037 c1c7 b2b5 63c0 3ab6
000001c0: d127 dd35 c225 e335 e2f6 a8b5 803b 5fb6
000001d0: da66 e7b7 471e 76b6 c225 e335 52ff 3b34
000001e0: 471e 76b6 3368 2db8 fd12 70b8 d127 dd35
000001f0: c7c3 0eb8 2978 fbb7 803b 5fb6 e2f6 a8b5
00000200: c225 e335 c225 e335 074d f0b6 0000 0000
00000210: 52ff 3b34 074d f0b6 52ff 3b34 52ff 3b34
00000220: fc89 f9b7 d127 dd35 e2f6 a8b5 84f4 3cb7
00000230: 0738 bf36 5742 77b7 a171 35b6 798b 09b7
00000240: c3c2 9938 6165 05b7 06a9 fdb6 306f b2b6
00000250: 6165 05b7 1a2f 5238 948d 3ab9 ecb0 cc36
00000260: 94cc 95b8 dbf1 53b8 798b 09b7 a171 35b6
00000270: e685 70b7 06a9 fdb6 6fd9 1837 498e d7b4
00000280: fce8 4ab7 6fd9 1837 306f b2b6 fce8 4ab7
00000290: f608 0f38 ecb0 cc36 a171 35b6 736f c0b6
000002a0: e060 9db7 d50a 0037 980b 7d35 d1be 3336
000002b0: e888 9037 363a e035 0749 ee36 5c34 d835
000002c0: 363a e035 be14 d637 bef3 bdb6 87a3 89b7
000002d0: 2634 0037 a740 1e37 d1be 3336 980b 7d35
000002e0: 8685 2737 0749 ee36 b89c f736 bdea 1db6
000002f0: 19cf 9636 b89c f736 5c34 d835 19cf 9636
00000300: f011 35b9 87a3 89b7 980b 7d35 0da6 ccb7
00000310: c357 5335 562a 4db7 b2c4 3d35 8fd6 1436
00000320: 01da 42b8 a163 2a36 855b 09b7 6429 39b7
00000330: a163 2a36 5765 42b8 fcc2 9537 4fc6 5222
00000340: 4be5 6137 a4f1 3c37 8fd6 1436 b2c4 3d35
00000350: d15f 5ab7 855b 09b7 3eb6 e5b6 c357 5335
00000360: da16 85b7 3eb6 e5b6 6429 39b7 da16 85b7
00000370: 0f9f 4637 4fc6 5222 b2c4 3d35 70bb ecb5

exp_avg_sq f4 [8, 28]
2.0051064e-06 3.412275e-07 1.4690467e-07 1.0065552e-06 5.407801e-06 3.6671585e-07 2.0016325e-08 6.113819e-08
3.6671585e-07 2.4806495e-06 6.680284e-06 1.2087496e-06 2.6151192e-06 1.1133394e-06 1.0065552e-06 1.4690467e-07
3.5215283e-08 2.0016325e-08 3.732308e-07 2.7682634e-07 9.731007e-08 3.732308e-07 6.113819e-08 9.731007e-08
1.0889891e-05 1.2087496e-06 1.4690467e-07 2.7855815e-06 8.718497e-09 6.347453e-06 5.249225e-10 6.622805e-07
2.308031e-06 4.4131153e-07 2.3477e-06 3.23562e-06 4.4131153e-07 5.724084e-06 5.077713e-06 7.848721e-10
2.6191508e-06 4.828036e-07 6.622805e-07 5.249225e-10 6.412825e-06 2.3477e-06 4.267569e-06 7.933254e-09
7.348479e-06 4.267569e-06 3.23562e-06 7.348479e-06 3.4202237e-06 7.848721e-10 5.249225e-10 7.1417035e-06
0.0 3.0162997e-11 0.0 0.0 0.0 0.0 3.0162997e-11 0.0
0.0 0.0 0.0 0.0 8.971504e-08 0.0 0.0 0.0
3.0162997e-11 3.0162997e-11 7.5211526e-10 0.0 0.0 7.5211526e-10 0.0 0.0
0.0 0.0 0.0 9.425727e-10 5.246553e-07 1.5642119e-08 1.7790656e-07 5.6197695e-07
1.2121375e-06 3.4161857e-07 1.43825725e-08 2.667455e-08 3.4161857e-07 2.484512e-06 1.339496e-06 5.246553e-07
6.388771e-07 1.5549224e-06 5.6197695e-07 1.7790656e-07 1.5642119e-08 1.43825725e-08 6.844669e-07 0.0
2.7934043e-08 6.844669e-07 2.667455e-08 2.7934043e-08 5.877079e-06 5.246553e-07 1.7790656e-07 2.7216338e-06
4.6253516e-07 1.9806065e-07 1.2113258e-06 1.9077354e-06 1.4024604e-06 1.6584497e-06 1.9806065e-07 1.22814106e-08
1.6584497e-06 3.4461334e-06 5.6068466e-06 4.6253516e-07 4.1656917e-06 2.917711e-06 1.9077354e-06 1.2113258e-06
1.9806065e-07 1.9806065e-07 1.109208e-06 0.0 1.22814106e-08 1.109208e-06 1.22814106e-08 1.22814106e-08
9.535253e-06 4.6253516e-07 1.2113258e-06 3.6395302e-06 8.004437e-07 3.5147542e-07 2.1108742e-06 2.0399043e-06
1.42943745e-05 3.0108165e-06 9.91922e-08 4.7779942e-08 3.0108165e-06 1.5532134e-05 3.2344666e-05 4.7836556e-07
1.319205e-05 7.792108e-06 2.0399043e-06 2.1108742e-06 1.6068915e-07 9.91922e-08 1.5044016e-06 2.8675157e-07
1.2473683e-07 1.5044016e-06 4.7779942e-08 1.2473683e-07 3.7073883e-06 4.7836556e-07 2.1108742e-06 3.658306e-06
5.3233775e-06 1.2653085e-06 3.759002e-08 6.837704e-08 5.8436365e-07 7.035625e-08 7.3928334e-07 4.1776087e-08
7.035625e-08 6.15518e-07 2.1740681e-07 2.6583912e-06 1.2206736e-07 2.2713162e-07 6.837704e-08 3.759002e-08
1.1127053e-06 7.3928334e-07 1.14817155e-07 1.0440582e-06 2.6082284e-07 1.14817155e-07 4.1776087e-08 2.6082284e-07
2.7056822e-05 2.6583912e-06 3.759002e-08 5.1442844e-06 3.8351313e-08 3.491035e-06 3.3908915e-08 1.72242e-07
4.7161734e-06 1.9697212e-07 1.2337468e-06 2.203854e-06 1.9697212e-07 2.4607239e-06 2.2080537e-06 1.01231794e-10
1.0449479e-06 4.385763e-07 1.72242e-07 3.3908915e-08 3.5901924e-06 1.2337468e-06 2.2459085e-07 3.8249844e-08
4.8806237e-06 2.2459085e-07 2.203854e-06 4.8806237e-06 9.202515e-07 1.01231794e-10 3.3908915e-08 1.7675233e-06
00000000: 778f 0636 f331 b734 d9bc 1d34 f918 8735
00000010: a874 b536 0be1 c434 5df0 ab32 134b 8333
00000020: 0be1 c434 3c79 2636 3427 e036 523c a235
00000030: 687f 2f36 0d6e 9535 f918 8735 d9bc 1d34
00000040: 9d3f 1733 5df0 ab32 7360 c834 b99e 9434
00000050: c7f8 d033 7360 c834 134b 8333 c7f8 d033
00000060: bab3 3637 523c a235 d9bc 1d34 edef 3a36
00000070: 5bc8 1532 35fc d436 234a 1030 92c7 3135
00000080: ace3 1a36 65ed ec34 2e8d 1d36 8723 5936
00000090: 65ed ec34 8211 c036 3961 aa36 77be 5730
000000a0: abc4 2f36 039a 0135 92c7 3135 234a 1030
000000b0: bf2d d736 2e8d 1d36 2332 8f36 d24a 0832
000000c0: f492 f636 2332 8f36 8723 5936 f492 f636
000000d0: ff86 6536 77be 5730 234a 1030 c4a2 ef36
000000e0: 0000 0000 84a8 042e 0000 0000 0000 0000
000000f0: 0000 0000 0000 0000 84a8 042e 0000 0000
00000100: 0000 0000 0000 0000 0000 0000 0000 0000
00000110: 5da9 c033 0000 0000 0000 0000 0000 0000
00000120: 84a8 042e 84a8 042e 68bd 4e30 0000 0000
00000130: 0000 0000 68bd 4e30 0000 0000 0000 0000
00000140: 0000 0000 0000 0000 0000 0000 d48b 8130
00000150: 0ad6 0c35 625d 8632 9506 3f34 c3da 1635
00000160: bab0 a235 b367 b734 3917 7732 f521 e532
00000170: b367 b734 97bb 2636 bbc8 b335 0ad6 0c35
00000180: 4d7f 2b35 bab2 d035 c3da 1635 9506 3f34
00000190: 625d 8632 3917 7732 35bc 3735 0000 0000
000001a0: 9cf3 ef32 35bc 3735 f521 e532 9cf3 ef32
000001b0: b933 c536 0ad6 0c35 9506 3f34 50a5 3636
000001c0: 5952 f834 7faa 5434 d694 a235 a506 0036
000001d0: 2c3c bc35 e697 de35 7faa 5434 37fe 5232
000001e0: e697 de35 1f44 6736 7222 bc36 5952 f834
000001f0: 05c7 8b36 e5cd 4336 a506 0036 d694 a235
00000200: 7faa 5434 7faa 5434 19e0 9435 0000 0000
00000210: 37fe 5232 19e0 9435 37fe 5232 37fe 5232
00000220: 9af9 1f37 5952 f834 d694 a235 a73e 7436
00000230: 12de 5635 6ab2 bc34 8ba8 0d36 4ae5 0836
00000240: dfd1 6f37 6f0d 4a36 7d03 d533 9a36 4d33
00000250: 6f0d 4a36 014b 8237 d2a9 0738 0869 0035
00000260: 6c53 5d37 d9ba 0237 4ae5 0836 8ba8 0d36
00000270: e689 2c34 7d03 d533 d8ea c935 d6f2 9934
00000280: 66ef 0534 d8ea c935 9a36 4d33 66ef 0534
00000290: 72cc 7836 0869 0035 8ba8 0d36 3881 7536
000002a0: 779f b236 abd3 a935 aa72 2133 add6 9233
000002b0: 2add 1c35 c216 9733 2a73 4635 4b6d 3333
000002c0: c216 9733 133a 2535 5470 6934 d066 3236
000002d0: 9f11 0334 77e1 7334 add6 9233 aa72 2133
000002e0: 4358 9535 2a73 4635 6691 f633 9121 8c35
000002f0: 3807 8c34 6691 f633 4b6d 3333 3807 8c34
00000300: 15f8 e237 d066 3236 aa72 2133 119d ac36
00000310: b7b7 2433 8647 6a36 3fa3 1133 85f1 3834
00000320: 9f3f 9e36 497f 5334 3897 a535 ece5 1336
00000330: 497f 5334 ea22 2536 132e 1436 6f9c de2e
00000340: 2340 8c35 7875 eb34 85f1 3834 3fa3 1133
00000350: 09ef 7036 3897 a535 1027 7134 2648 2433
00000360: 3dc4 a336 1027 7134 ece5 1336 3dc4 a336
00000370: 3407 7735 6f9c de2e 3fa3 1133 a33b ed35

exp_avg f4 [8]
-5.5028835e-05 -7.7520664e-05 6e-45 -0.00011492968 -0.00023182857 -0.00016563569 -0.000110659195 -6.382049e-05
00000000: c3ce 66b8 9792 a2b8 0400 0000 6706 f1b8
00000010: 0217 73b9 7eae 2db9 b411 e8b8 5dd7 85b8

exp_avg_sq f4 [8]
2.793605e-05 2.7173133e-05 1.0210632e-07 1.833214e-05 5.8340225e-05 9.207245e-05 2.2017904e-05 1.2876483e-05
00000000: 3658 ea37 dcf1 e337 8b45 db33 f9c7 9937
00000010: 57b2 7438 0517 c138 17b3 b837 1308 5837

exp_avg f4 [8, 8]
-5.5486908e-05 -6.2708095e-05 0.0 -5.8767222e-05 -5.4714634e-05 6.8671434e-05 5.4796565e-05 -0.0001022298
0.0 0.0 0.0 0.0 0.0 0.0 0.0 0.0
-2.0319383e-05 4.389949e-05 6e-45 -1.5319027e-05 -4.5025416e-05 -0.00013411189 -0.00013326034 7.249171e-05
-2.9592464e-05 -5.213948e-05 -6e-45 1.1893762e-05 1.7281132e-05 -7.6934135e-05 5.3958007e-07 -5.801821e-05
0.0 0.0 0.0 0.0 0.0 0.0 0.0 0.0
-0.00021986122 -1.2440997e-05 6e-45 2.7557018e-05 -2.9778534e-05 0.00010377361 -0.00020502636 -2.4954195e-05
0.0 0.0 0.0 0.0 0.0 0.0 0.0 0.0
3.472108e-05 1.4720914e-05 -6e-45 -0.00015459856 -0.00016796669 -0.00010313253 4.45047e-06 8.809908e-06
00000000: 9dba 68b8 2782 83b8 0000 0000 d37c 76b8
00000010: 647d 65b8 b203 9038 5dd5 6538 3564 d6b8
00000020: 0000 0000 0000 0000 0000 0000 0000 0000
00000030: 0000 0000 0000 0000 0000 0000 0000 0000
00000040: 8b73 aab7 b820 3838 0400 0000 5c81 80b7
00000050: acd9 3cb8 63a0 0cb9 cdbb 0bb9 b106 9838
00000060: 553d f8b7 57b0 5ab8 0400 0080 528b 4737
00000070: f3f6 9037 b357 a1b8 a9d7 1035 9458 73b8
00000080: 0000 0000 0000 0000 0000 0000 0000 0000
00000090: 0000 0000 0000 0000 0000 0000 0000 0000
000000a0: 8c8a 66b9 adb9 50b7 0400 0000 3f2a e737
000000b0: eacc f9b7 08a1 d938 58fc 56b9 ba54 d1b7
000000c0: 0000 0000 0000 0000 0000 0000 0000 0000
000000d0: 0000 0000 0000 0000 0000 0000 0000 0000
000000e0: 7aa1 1138 d8f9 7637 0400 0080 bc1b 22b9
000000f0: 3720 30b9 db48 d8b8 3f55 9536 44ce 1337

exp_avg_sq f4 [8, 8]
2.1620808e-05 9.543716e-06 0.0 1.06171765e-05 1.602307e-05 7.388199e-06 1.4638735e-05 2.7087424e-05
0.0 0.0 0.0 0.0 0.0 0.0 0.0 0.0
9.7095335e-06 1.6580024e-06 2.8734489e-11 8.095607e-06 9.184884e-06 3.206253e-05 1.940011e-05 7.2249914e-06
2.292809e-06 1.7126114e-05 1.5940627e-10 4.826052e-07 1.6747753e-06 3.098176e-06 1.2369504e-06 2.722301e-05
0.0 0.0 0.0 0.0 0.0 0.0 0.0 0.0
6.753896e-05 1.7900865e-06 9.9199184e-11 3.6605334e-06 6.1413148e-06 1.2305024e-05 5.1540712e-05 5.4477064e-06
0.0 0.0 0.0 0.0 0.0 0.0 0.0 0.0
2.341071e-05 1.2558277e-06 1.6277014e-10 2.037248e-05 2.3440869e-05 2.3307088e-05 2.4793671e-05 1.4451631e-06
00000000: 555e b537 f31d 2037 0000 0000 6d20 3237
00000010: 4869 8637 25e8 f736 e398 7537 cd39 e337
00000020: 0000 0000 0000 0000 0000 0000 0000 0000
00000030: 0000 0000 0000 0000 0000 0000 0000 0000
00000040: 21e6 2237 8788 de35 51c0 fc2d 5ed2 0737
00000050: c718 1a37 e17a 0638 6bbd a237 346e f236
00000060: 29de 1936 0daa 8f37 e044 2f2f 608c 0135
00000070: d7c8 e035 42ea 4f36 4b05 a635 f85c e437
00000080: 0000 0000 0000 0000 0000 0000 0000 0000
00000090: 0000 0000 0000 0000 0000 0000 0000 0000
000000a0: b4a3 8d38 e742 f035 2d24 da2e 7ca7 7536
000000b0: 7e11 ce36 ad71 4e37 6b2d 5838 71cb b636
000000c0: 0000 0000 0000 0000 0000 0000 0000 0000
000000d0: 0000 0000 0000 0000 0000 0000 0000 0000
000000e0: 1e62 c437 e98d a835 b9f7 322f 91e5 aa37
000000f0: e2a2 c437 9783 c337 01fc cf37 6df7 c135

exp_avg f4 [8]
2.5881894e-07 0.0 -9.0964386e-05 -1.7991979e-05 0.0 -6.2937055e-05 0.0 -0.00010075618
00000000: cef3 8a34 0000 0000 22c4 beb8 7bed 96b7
00000010: 0000 0000 13fd 83b8 0000 0000 104d d3b8

exp_avg_sq f4 [8]
3.7195805e-05 0.0 7.4395844e-05 1.4915818e-05 0.0 3.9090235e-05 0.0 6.330094e-05
00000000: b102 1c38 0000 0000 f704 9c38 f33e 7a37
00000010: 0000 0000 d2f4 2338 0000 0000 6fc0 8438

exp_avg f4 [4, 8]
9.756853e-05 0.0 2.054799e-05 -0.00013699188 0.0 8.5189204e-05 0.0 7.799546e-05
-0.00022986843 0.0 0.00021588104 6.931982e-05 0.0 2.7053546e-05 0.0 1.1003651e-05
7.780284e-05 0.0 -0.0001397009 5.3092546e-05 0.0 0.00023612502 0.0 -0.00028413115
5.449098e-05 0.0 -9.672747e-05 1.4547661e-05 0.0 -0.00034836988 0.0 0.00019512995
00000000: b59d cc38 0000 0000 795e ac37 7aa5 0fb9
00000010: 0000 0000 9ba7 b238 0000 0000 7e91 a338
00000020: d608 71b9 0000 0000 205e 6239 cc5f 9138
00000030: 0000 0000 0cf1 e237 0000 0000 529c 3837
00000040: 152a a338 0000 0000 ad7c 12b9 b0af 5e38
00000050: 0000 0000 5498 7739 0000 0000 70f7 94b9
00000060: 3f8d 6438 0000 0000 2ada cab8 ba11 7437
00000070: 0000 0000 6aa5 b6b9 0000 0000 cc9b 4c39

exp_avg_sq f4 [4, 8]
1.5844862e-05 0.0 2.4786636e-05 7.03116e-05 0.0 3.2018368e-05 0.0 2.3989272e-05
6.712138e-05 0.0 2.4889177e-05 1.5605336e-05 0.0 5.033444e-05 0.0 3.202582e-05
1.727239e-05 0.0 6.1148065e-05 6.3879734e-06 0.0 5.650747e-05 0.0 0.00011985709
1.2209127e-05 0.0 1.9485276e-05 5.900298e-06 0.0 0.00019605509 0.0 4.397489e-05
00000000: 95ea 8437 0000 0000 e5ec cf37 4174 9338
00000010: 0000 0000 764b 0638 0000 0000 923c c937
00000020: 84c3 8c38 0000 0000 1ac9 d037 34e8 8237
00000030: 0000 0000 321e 5338 0000 0000 7653 0638
00000040: 2de4 9037 0000 0000 9e3c 8038 4658 d636
00000050: 0000 0000 6f02 6d38 0000 0000 c95b fb38
00000060: cdd5 4c37 0000 0000 5074 a337 2dfb c536
00000070: 0000 0000 2394 4d39 0000 0000 ae71 3838

exp_avg f4 [4]
1.7278586e-05 3.1824995e-05 -2.0056934e-05 -2.9051382e-05
00000000: 7bf1 9037 d47b 0538 f03f a8b7 5eb3 f3b7

exp_avg_sq f4 [4]
6.87281e-05 8.490632e-05 0.00013171253 7.723276e-05
00000000: 1e22 9038 bc0f b238 501c 0a39 06f8 a138
