data.pth (torch, 10275 bytes, 18 tensors)

l1.weight f4 [8, 28]
000000 26 7b c3 bb 20 ed db 3e 63 a0 bb 3d ef 8f 81 be
       -0.005965608 0.4295435 0.09161451 -0.25305125
000010 d2 c0 32 3f 1f 9d 5a be 03 8c b1 3e 4b 4e 6d 3e
       0.6982547 -0.21349 0.34677133 0.23174398
000020 94 f8 6d bd f5 ee fc 3e d2 32 8b be 87 73 c8 bd
       -0.05809839 0.4940106 -0.2718721 -0.0978766
000030 c9 ad 85 be 2d 8f 7f be ae 34 1b be 4b 7f 14 be
       -0.2610915 -0.24956961 -0.15156814 -0.14501683
000040 58 73 c3 3e 0b 4d c7 3e 87 83 cc 3e cc 10 eb bd
       0.38173938 0.38925967 0.39944097 -0.11477813
000050 cd 77 ab 3e c1 89 c0 3e e8 2c 11 3e 79 f2 df 3e
       0.33489838 0.37605098 0.14177287 0.4373968
000060 ee 27 f1 bd 97 bc 7b bd df 85 5f be 5f 9f 2d 3e
       -0.11775194 -0.06145915 -0.21828412 0.16955326
000070 de 70 15 bd e1 7c 17 3e aa a0 97 3e 26 8f b4 3e
       -0.03648459 0.14793731 0.29614764 0.35265464
000080 2f c0 47 3f ea 1d cb 3e 32 5f 92 3e c1 65 10 3e
       0.78027624 0.3967126 0.28588253 0.14101316
000090 68 14 a7 3e 24 5f 4c 3f c3 a4 0d 3f 0d fd b4 be
       0.32632756 0.79832673 0.5532953 -0.35349312
0000a0 18 35 0e 3f 6a 0e 17 3f 24 21 db 3e 06 c0 bf 3e
       0.55549765 0.5900637 0.42798722 0.3745119
0000b0 a0 ce 86 bc 2a 31 8f 3e e4 34 85 3e e8 71 49 be
       -0.016455948 0.27967197 0.26016915 -0.19672358
0000c0 00 40 80 3a dd 5f bd 3e c9 9b 3a 3e 2c 9c 08 be
       0.0009784698 0.369872 0.1822349 -0.13340825
0000d0 48 6e 40 bf 65 8d a7 be 78 f2 a0 3e 25 e0 c7 3d
       -0.75168276 -0.32725063 0.3143499 0.09759549
0000e0 a0 c9 05 3f 72 0b 23 3e 3b f4 8b 3e e2 55 76 3c
       0.5226078 0.15922335 0.2733477 0.0150351245
0000f0 30 b0 18 3f 64 9f 3c 3e 57 59 0b bf ae 2c 6b bd
       0.5964384 0.18420178 -0.54433197 -0.057415657
000100 74 83 64 3e 9e cc e1 3e 2a 17 88 be 03 53 ed 3e
       0.2231577 0.44101423 -0.26580173 0.46352395
000110 7f ee ba bc f9 0e 06 bd 62 6e de bc ed 84 25 3e
       -0.022818802 -0.032729123 -0.027152244 0.16163988
000120 4a 0e 08 bf 2b 7f ca be 83 e1 b8 3e 71 8e eb 3e
       -0.53146803 -0.39550146 0.36109552 0.46007112
000130 59 5e 91 be 67 55 a5 3e 1b b1 93 be b2 f6 96 be
       -0.28392294 0.3229172 -0.28846058 -0.2948509
000140 98 af 36 3f 6e 10 10 3f fa 10 2d 3e c5 65 c6 3e
       0.71361685 0.5627507 0.16901007 0.3874952
000150 6c b7 94 be 28 f3 82 3e 9b 21 bb bd 41 70 27 be
       -0.2904619 0.25576138 -0.09137269 -0.16351415
000160 76 5e 1d 3f f4 d2 93 be 98 18 87 3e 62 e9 2c 3e
       0.6147226 -0.28871882 0.2638595 0.16885903
000170 54 33 08 3c 2c ed 34 3f 2c 5b df be 6f 28 b4 ba
       0.008313019 0.70674396 -0.43624246 -0.001374496
000180 cd 5c df be b7 29 a7 be 7e dc 5d be 24 3e 0a bd
       -0.4362549 -0.32649013 -0.21666142 -0.03375067
000190 53 e8 bb 3e 6b 18 26 3e 7e 0c fc 3e cd f8 2d bc
       0.36700687 0.16220252 0.4922828 -0.010618401
0001a0 d7 64 ab 3e de cc 2d 3f a8 16 4e 3e 2d fb b9 3e
       0.33475372 0.6789073 0.2012583 0.36324444
0001b0 87 a0 ca be c7 6b 74 3d f5 80 01 be 24 b1 25 bd
       -0.39575598 0.059673097 -0.1264685 -0.040452138
0001c0 0a ba b8 3e a9 5b e4 bc e9 2a 3e be ab 00 be be
       0.36079437 -0.027875738 -0.18571056 -0.37109885
0001d0 c3 f2 f3 be 92 3f 93 be e3 6d 2c be 72 4b 53 be
       -0.4764615 -0.28759438 -0.16838793 -0.20634249
0001e0 a9 c1 5d be e5 6e be be 15 a7 b4 be 76 3d f0 3e
       -0.21655907 -0.3719398 -0.35283723 0.4692189
0001f0 5b 34 dd be 43 69 a6 be 73 2d d0 be 86 9e 45 be
       -0.43204007 -0.32502183 -0.40659675 -0.19298753
000200 1b 1c 82 be 38 06 fd be c8 13 78 be 8d cd 06 3f
       -0.25412068 -0.49418807 -0.24226296 0.52657396
000210 54 67 a5 bd e0 62 79 be 52 23 ca bd da 83 3b be
       -0.08076349 -0.24354124 -0.09870018 -0.18312016
000220 1c 93 56 3f 45 00 10 3f 02 0c cb bd f3 6f d0 3e
       0.8381822 0.5625041 -0.099144 0.4071041
000230 fd 2c 05 be 85 54 84 3e ed 2e db 3e b3 a2 0b 3f
       -0.13005443 0.25845733 0.4280924 0.54545134
000240 2f 2f fd be 3e 47 93 3e 99 bf d6 3e 39 52 c9 3e
       -0.4945006 0.2876529 0.41943052 0.39320543
000250 b6 78 1f 3f a8 3d fd be 4a 23 31 3f 31 fa 06 be
       0.62293565 -0.49461102 0.6919447 -0.13181378
000260 c4 c7 1c 3f 47 a1 3f 3f e7 ae 83 3e 20 d4 ac 3e
       0.6124232 0.74855465 0.25719377 0.3375559
000270 ec 3e 98 3e 3a 3f 7c 3e 43 e2 a5 be bc 43 2d be
       0.29735506 0.24633494 -0.32399186 -0.1692037
000280 6b 33 8a 3e ba 98 61 be eb 25 87 3e 70 e0 94 3e
       0.26992354 -0.22030917 0.26396117 0.29077482
000290 12 2a fd be 7d 2f 6e be 92 6e 75 3e 29 92 4b 3d
       -0.4944616 -0.23260303 0.2396796 0.049699936
0002a0 1e bb de bd 78 68 7e be 58 38 97 3e 94 0d ce 3e
       -0.108755335 -0.24844539 0.29535174 0.40244734
0002b0 35 a2 c2 bd 48 2d 0e 3f c0 1d 9b bc ae 08 3b be
       -0.09503595 0.55537844 -0.018935084 -0.1826503
0002c0 79 ee 03 3f 4c c7 0b be 46 a6 b1 3e 41 a2 15 be
       0.51535755 -0.13650244 0.3469717 -0.14612676
0002d0 05 c6 2c 3f f9 b5 33 3f 4a 8e 16 3f e8 8e c0 3e
       0.67489654 0.70199543 0.58810866 0.3760903
0002e0 99 d8 bb bc b9 ef 29 be 07 ad 18 3e 05 b8 35 be
       -0.02293043 -0.16595353 0.14909755 -0.17745979
0002f0 ee 30 09 bd 59 45 78 3e d0 97 0a be c6 bc 0b be
       -0.03349393 0.24245204 -0.13534474 -0.1364623
000300 58 e6 e1 be 45 e7 3e be a8 57 0a 3f 23 5a a5 b6
       -0.4412105 -0.1864291 0.5404 -4.9278765e-06
000310 94 0f ad 3e 11 77 42 3e 2e 9d 42 bd 61 11 ae be
       0.33800948 0.18990733 -0.04751318 -0.33997634
000320 ba cf c8 3e ec d2 67 be 00 d0 a2 3e 86 cf a0 3e
       0.39220983 -0.22639054 0.31799316 0.31408328
000330 8f 6c 4b be df d8 c3 3e 30 6b 07 bf 85 54 1e 3e
       -0.1986563 0.38251397 -0.5289793 0.15461929
000340 fb 65 06 bf 94 a2 06 bf 27 f0 91 be 92 0c 83 bd
       -0.5249936 -0.52591825 -0.28503534 -0.06398882
000350 28 21 67 3e c7 64 e5 3e a0 f2 bf 3e 78 12 ee 3d
       0.22571242 0.4480345 0.37489796 0.116246164
000360 6b 7c 01 3f 63 ce 97 3e 7c 66 8c 3e 71 4f 08 3f
       0.5058047 0.29649648 0.2742194 0.5324622
000370 f6 65 ce 3e 85 06 a9 3e 42 85 b6 be 62 05 43 3e
       0.40312165 0.33012787 -0.35648543 0.19045022

l1.bias f4 [8]
000000 57 0e 8b 3e 38 65 40 3f f8 af 6c 3f ef 59 df 3e
       0.27159378 0.7515445 0.92456007 0.436233
000010 9f be 0b 3f 79 2e fd 3e c5 e7 e1 3e 82 6b 07 3f
       0.5458774 0.49449518 0.4412214 0.5289842

l2.weight f4 [8, 8]
000000 7c 10 61 3f f1 8b 63 bd 3a 4e 8b 3f a6 a1 ed 3e
       0.8791578 -0.05555338 1.0883248 0.4641239
000010 85 d7 3f 3f 03 b4 43 bf 32 98 2e bf dc 39 3f 3f
       0.7493823 -0.7644655 -0.6820098 0.7469766
000020 19 63 22 3f 8b 15 be 3d ad 5f 3e bf 52 79 08 3f
       0.6343246 0.09281453 -0.7436474 0.5331012
000030 b0 f0 11 bf f2 cc 5e 3f 1b d9 16 bf 58 8d 22 3e
       -0.57007885 0.8703147 -0.58925027 0.15874231
000040 99 6b 01 bd 31 20 24 3e 33 a5 49 3f 8f fb 3e bd
       -0.031596754 0.16027905 0.787677 -0.046626624
000050 44 5f 4f 3f 44 d1 17 bf 99 87 38 bf 0f 7f 15 3f
       0.8100474 -0.5930369 -0.72081906 0.58397
000060 3d 5c 8f 3e 85 e5 dd bd 7a 54 21 bf 3d ed 93 3e
       0.2800006 -0.10834793 -0.63019526 0.28891936
000070 d9 45 30 bf e2 2c 36 3f c8 bb a0 be bf 60 2a 3f
       -0.6885658 0.71162236 -0.31393266 0.6655387
000080 34 23 7f 3f b2 06 83 3f e7 25 f8 bd 71 4e 93 3f
       0.9966309 1.0236418 -0.12116604 1.1508313
000090 d7 75 14 bf 45 82 83 bf 02 d4 69 be e8 75 16 3f
       -0.5799231 -1.027413 -0.22834781 0.5877366
0000a0 02 76 37 3f 91 19 47 3f b3 6e 35 be ef 9d 5b 3f
       0.7166444 0.77773386 -0.1771801 0.8578786
0000b0 5b f4 e6 be 23 99 12 bf 96 75 a8 be 7c 55 20 3f
       -0.45108303 -0.5726492 -0.3290221 0.6263044
0000c0 9b 45 b2 3e d3 ee c0 3e 31 8f 37 bf 7f cf 2c be
       0.3481873 0.37682208 -0.7170287 -0.16876028
0000d0 9b 6c 06 bd a6 ab c8 3f 4d ce 24 3f b7 88 06 3e
       -0.032818418 1.5677383 0.6437729 0.1313809
0000e0 1a bd 85 bd 7e 63 9e 3f d4 24 f5 3e 48 1b c7 3e
       -0.06530209 1.2374113 0.4787966 0.38888
0000f0 2f 39 14 bf ca fb 56 3f 06 fe 94 3f 08 64 e5 be
       -0.57899755 0.8397795 1.1640022 -0.4480288

l2.bias f4 [8]
000000 63 e1 19 3f 83 cd b6 bd 6c 4f e6 3e 7a b3 bd 3d
       0.6010954 -0.08925917 0.4498247 0.09262748
000010 8e b5 81 3e 48 28 3e 3e 47 53 37 3c 60 8a db 3e
       0.25333828 0.18570054 0.011189288 0.4287901

l3.weight f4 [4, 8]
000000 b0 fd 17 bf ea 66 60 3f bb 34 70 bf 3c 0e 0d 3f
       -0.5937147 0.87657034 -0.9383046 0.55099845
000010 5f e5 c3 3d 73 51 ec 3e 60 82 bf 3e a7 da 85 bf
       0.095652334 0.4615589 0.37404156 -1.0457352
000020 d5 17 1a be 5c 18 4c bf b8 19 76 bb ec bb 4b bf
       -0.15048154 -0.7972467 -0.003755195 -0.7958362
000030 51 d1 3b 3f 85 32 e2 3e 8b 85 c7 bf fc b2 0a be
       0.73366266 0.44179168 -1.5587629 -0.1354484
000040 6f 96 6e bf 07 9e ea be e7 ba 4a bf 42 33 fe be
       -0.93198293 -0.4582369 -0.7919144 -0.49648482
000050 b4 8c 29 bf 99 73 1f bf cc 0d 2b 3f e9 1f 3c 3f
       -0.6623032 -0.62285763 0.6681793 0.7348619
000060 7d d5 1c 3f 4b 2e 9c be f2 fc 7c 3f 1a 6d b9 be
       0.6126326 -0.3050407 0.98823464 -0.3621605
000070 1b c5 6b bf e1 94 61 bf 47 de 8f be 6f 30 9b bf
       -0.92097634 -0.88117796 -0.28099272 -1.2124156

l3.bias f4 [4]
000000 5c af 08 bd 69 63 cc be 0a 5a 19 3f 98 15 4b 3d
       -0.03337036 -0.39919594 0.59903014 0.04958114

exp_avg f4 [8, 28]
000000 da 0f 45 32 59 87 35 b7 97 6b e8 32 75 2e 10 36
       1.1470513e-08 -1.0819954e-05 2.705728e-08 2.1484714e-06
000010 66 c7 d9 b7 ed 6b 69 34 a4 10 14 b7 e0 67 41 b7
       -2.5961268e-05 2.1739079e-07 -8.825362e-06 -1.1527882e-05
000020 ed 6b 69 34 91 85 a9 b7 d2 1a 43 35 e5 51 8a b5
       2.1739079e-07 -2.0208567e-05 7.268219e-07 -1.0305636e-06
000030 01 6e 24 37 0d 2b ad 36 75 2e 10 36 97 6b e8 32
       9.800774e-06 5.1608135e-06 2.1484714e-06 2.705728e-08
000040 dc 02 47 b7 a4 10 14 b7 f4 6f ed b6 05 dc 8b 35
       -1.186199e-05 -8.825362e-06 -7.0761835e-06 1.0420341e-06
000050 17 5a 74 b7 f4 6f ed b6 e0 67 41 b7 17 5a 74 b7
       -1.4564509e-05 -7.0761835e-06 -1.1527882e-05 -1.4564509e-05
000060 7f 78 22 b6 e5 51 8a b5 97 6b e8 32 c6 7d a7 b6
       -2.421002e-06 -1.0305636e-06 2.705728e-08 -4.99163e-06
000070 9b da 1b 36 fc 8c 8c 36 5e 5d c5 b3 e9 f2 e2 b4
       2.3224045e-06 4.188738e-06 -9.190511e-08 -4.227252e-07
000080 0d c8 39 b8 d2 b4 8c b5 95 5a 38 36 52 63 62 36
       -4.429375e-05 -1.0483438e-06 2.7470862e-06 3.3734436e-06
000090 d2 b4 8c b5 aa 99 54 b8 03 6b ba b7 9b da 1b 36
       -1.0483438e-06 -5.068785e-05 -2.2222759e-05 2.3224045e-06
0000a0 d7 95 a9 b6 86 dc d1 b6 e9 f2 e2 b4 5e 5d c5 b3
       -5.054036e-06 -6.2543577e-06 -4.227252e-07 -9.190511e-08
0000b0 fc 8c 8c 36 95 5a 38 36 31 ed 7b b7 04 00 00 00
       4.188738e-06 2.7470862e-06 -1.5015991e-05 6e-45
0000c0 59 91 a1 36 31 ed 7b b7 52 63 62 36 59 91 a1 36
       4.8150946e-06 -1.5015991e-05 3.3734436e-06 4.8150946e-06
0000d0 2b 22 bb 37 9b da 1b 36 5e 5d c5 b3 36 56 21 37
       2.2308048e-05 2.3224045e-06 -9.190511e-08 9.61642e-06
0000e0 11 be 05 b7 74 35 0d 36 f3 c2 38 34 bc 99 62 35
       -7.971671e-06 2.104175e-06 1.7207257e-07 8.4415274e-07
0000f0 de 3e 6f b6 e6 20 03 35 86 73 85 36 87 ac e7 35
       -3.5650369e-06 4.8849176e-07 3.9771576e-06 1.7261053e-06
000100 e6 20 03 35 b2 38 cd b7 8a 42 62 b7 53 a3 cc b6
       4.8849176e-07 -2.4464305e-05 -1.3486142e-05 -6.098687e-06
000110 90 d5 9e 35 be bb d4 35 bc 99 62 35 f3 c2 38 34
       1.1834072e-06 1.5849871e-06 8.4415274e-07 1.7207257e-07
000120 86 73 85 36 86 73 85 36 63 ed b7 35 32 63 fb b5
       3.9771576e-06 3.9771576e-06 1.3703651e-06 -1.8729827e-06
000130 87 ac e7 35 63 ed b7 35 87 ac e7 35 87 ac e7 35
       1.7261053e-06 1.3703651e-06 1.7261053e-06 1.7261053e-06
000140 0a b5 ec b8 53 a3 cc b6 f3 c2 38 34 41 2e 7e b7
       -0.00011287078 -6.098687e-06 1.7207257e-07 -1.5150349e-05
000150 dc 12 80 35 93 59 f7 b6 5f eb 29 35 b0 35 0f 36
       9.542232e-07 -7.3716014e-06 6.3299916e-07 2.133991e-06
000160 dd a2 17 b8 08 bb 64 35 65 f0 ca b6 f6 43 07 b7
       -3.6152884e-05 8.5208785e-07 -6.0480547e-06 -8.06245e-06
000170 08 bb 64 35 a1 d1 29 b8 58 60 a4 35 dc 12 80 35
       8.5208785e-07 -4.0487972e-05 1.2246992e-06 9.542232e-07
000180 df b9 cd 36 f7 9a 70 36 b0 35 0f 36 5f eb 29 35
       6.1311143e-06 3.5852988e-06 2.133991e-06 6.3299916e-07
000190 93 59 f7 b6 65 f0 ca b6 af d9 65 b7 04 00 00 00
       -7.3716014e-06 -6.0480547e-06 -1.3700147e-05 6e-45
0001a0 8d 78 1d b7 af d9 65 b7 f6 43 07 b7 8d 78 1d b7
       -9.385997e-06 -1.3700147e-05 -8.06245e-06 -9.385997e-06
0001b0 8e 73 f9 37 dc 12 80 35 5f eb 29 35 74 84 e6 b5
       2.9736922e-05 9.542232e-07 6.3299916e-07 -1.7174884e-06
0001c0 b7 1f 1c b7 2d a4 8b 36 7c 46 77 33 b2 12 28 35
       -9.305709e-06 4.1616354e-06 5.7573274e-08 6.261208e-07
0001d0 92 d8 ae 37 a0 a2 26 35 09 82 a2 36 04 00 00 00
       2.0843265e-05 6.207647e-07 4.8431143e-06 6e-45
0001e0 a0 a2 26 35 7e f7 8f 37 3c bd b6 35 21 4d e7 b6
       6.207647e-07 1.7162176e-05 1.3615131e-06 -6.8933155e-06
0001f0 2c b1 45 36 f1 d7 79 36 b2 12 28 35 7c 46 77 33
       2.9458415e-06 3.7229586e-06 6.261208e-07 5.7573274e-08
000200 7d 96 dc 36 09 82 a2 36 78 9a 51 37 99 e4 21 b6
       6.57403e-06 4.8431143e-06 1.2493336e-05 -2.412393e-06
000210 c3 51 e8 35 78 9a 51 37 04 00 00 00 c3 51 e8 35
       1.7309143e-06 1.2493336e-05 6e-45 1.7309143e-06
000220 b1 e5 06 b9 21 4d e7 b6 7c 46 77 33 4e 17 4c b7
       -0.00012864803 -6.8933155e-06 5.7573274e-08 -1.2164774e-05
000230 fb a9 71 36 fb f7 9b b6 03 6a d7 b5 2b 63 c5 b6
       3.601074e-06 -4.6482287e-06 -1.6049602e-06 -5.882602e-06
000240 81 9d 29 37 a2 c7 77 b6 a0 f2 e7 b3 bd d8 b4 34
       1.0109857e-05 -3.692207e-06 -1.0800909e-07 3.368531e-07
000250 a2 c7 77 b6 74 19 27 36 7b b4 1c b8 fb a9 71 36
       -3.692207e-06 2.4899755e-06 -3.7361384e-05 3.601074e-06
000260 29 de 0a b8 cb 1a 96 b7 2b 63 c5 b6 03 6a d7 b5
       -3.3108667e-05 -1.789387e-05 -5.882602e-06 -1.6049602e-06
000270 fb f7 9b b6 a0 f2 e7 b3 83 2e c3 35 04 00 00 00
       -4.6482287e-06 -1.0800909e-07 1.4542169e-06 6e-45
000280 a3 0a 8d b6 83 2e c3 35 bd d8 b4 34 a3 0a 8d b6
       -4.2033657e-06 1.4542169e-06 3.368531e-07 -4.2033657e-06
000290 a1 38 44 38 fb a9 71 36 03 6a d7 b5 5d 52 84 b5
       4.678278e-05 3.601074e-06 -1.6049602e-06 -9.858737e-07
0002a0 14 65 e1 34 54 76 e4 34 8d 34 8b b5 4c f3 87 b6
       4.198306e-07 4.2554404e-07 -1.0371601e-06 -4.051637e-06
0002b0 15 6e b8 b6 28 80 2a b6 00 00 00 00 00 00 00 00
       -5.4964426e-06 -2.540657e-06 0.0 0.0
0002c0 28 80 2a b6 24 ed f3 b6 bd e4 52 b8 14 65 e1 34
       -2.540657e-06 -7.269571e-06 -5.028093e-05 4.198306e-07
0002d0 e3 02 c4 b7 9d ed 5d b7 4c f3 87 b6 8d 34 8b b5
       -2.3366365e-05 -1.322795e-05 -4.051637e-06 -1.0371601e-06
0002e0 54 76 e4 34 00 00 00 00 07 77 56 b6 00 00 00 00
       4.2554404e-07 0.0 -3.1957768e-06 0.0
0002f0 54 76 e4 34 07 77 56 b6 00 00 00 00 54 76 e4 34
       4.2554404e-07 -3.1957768e-06 0.0 4.2554404e-07
000300 95 ce 8d 38 14 65 e1 34 8d 34 8b b5 45 16 99 36
       6.761883e-05 4.198306e-07 -1.0371601e-06 4.562348e-06
000310 30 f9 8d b6 0c 5e 37 b7 ab 4e 32 35 ff e9 30 36
       -4.2311367e-06 -1.0929547e-05 6.6424644e-07 2.6362247e-06
000320 19 4a 4f b7 6a 31 ab 35 5f 69 0b b7 dc 9b 35 b7
       -1.2355414e-05 1.2754874e-06 -8.309579e-06 -1.08247295e-05
000330 6a 31 ab 35 0f de 53 b7 f4 7d 77 37 2f d5 87 b6
       1.2754874e-06 -1.2628282e-05 1.4751673e-05 -4.0481314e-06
000340 b2 81 63 37 1a cf e2 36 ff e9 30 36 ab 4e 32 35
       1.3560451e-05 6.7594347e-06 2.6362247e-06 6.6424644e-07
000350 0c 4c 34 b7 5f 69 0b b7 91 30 ce b5 35 80 44 b4
       -1.0746542e-05 -8.309579e-06 -1.5362331e-06 -1.8300564e-07
000360 89 7e 5e b7 91 30 ce b5 dc 9b 35 b7 89 7e 5e b7
       -1.3261692e-05 -1.5362331e-06 -1.08247295e-05 -1.3261692e-05
000370 ac 04 6f b8 2f d5 87 b6 ab 4e 32 35 9b 51 2a b7
       -5.698639e-05 -4.0481314e-06 6.6424644e-07 -1.015179e-05

exp_avg_sq f4 [8, 28]
000000 b5 bd 05 35 79 6a 90 36 59 00 d2 2e 64 d6 a2 34
       4.982242e-07 4.3039295e-06 9.549756e-11 3.033084e-07
000010 f3 16 97 35 5b 34 de 2f b7 26 f9 35 ca 1c 10 36
       1.1257056e-06 4.0418766e-10 1.8563213e-06 2.147443e-06
000020 5b 34 de 2f f0 b8 d0 34 9d f2 81 31 21 34 3d 31
       4.0418766e-10 3.887758e-07 3.781976e-09 2.7532752e-09
000030 2b bb 19 35 9e ea 4b 34 64 d6 a2 34 59 00 d2 2e
       5.7269307e-07 1.8991202e-07 3.033084e-07 9.549756e-11
000040 15 26 9e 36 b7 26 f9 35 40 91 04 35 f3 f9 04 35
       4.7132003e-06 1.8563213e-06 4.93852e-07 4.9537556e-07
000050 36 1c ae 36 40 91 04 35 ca 1c 10 36 36 1c ae 36
       5.1888883e-06 4.93852e-07 2.147443e-06 5.1888883e-06
000060 30 9c 86 36 21 34 3d 31 59 00 d2 2e f1 be 39 36
       4.011694e-06 2.7532752e-09 9.549756e-11 2.767829e-06
000070 f1 86 ba 34 41 0a bc 34 99 c2 c7 34 00 81 3b 34
       3.4743383e-07 3.502519e-07 3.7208227e-07 1.7462662e-07
000080 8a fb d8 36 29 b8 43 35 cd 98 c4 33 3a a1 56 33
       6.4665846e-06 7.291115e-07 9.1547555e-08 4.9972392e-08
000090 29 b8 43 35 d9 5b 04 37 1e 51 ce 35 b7 f1 c6 33
       7.291115e-07 7.889198e-06 1.5371804e-06 9.264061e-08
0000a0 91 26 bb 34 7b a4 5e 35 00 81 3b 34 99 c2 c7 34
       3.4859525e-07 8.2940795e-07 1.7462662e-07 3.7208227e-07
0000b0 27 2f 37 34 cd 98 c4 33 ba 62 a5 36 31 4a 7a 34
       1.7060357e-07 9.1547555e-08 4.9288765e-06 2.3310055e-07
0000c0 8e 69 16 34 ba 62 a5 36 3a a1 56 33 8e 69 16 34
       1.4008239e-07 4.9288765e-06 4.9972392e-08 1.4008239e-07
0000d0 d2 ad b8 36 b7 f1 c6 33 99 c2 c7 34 90 84 d3 36
       5.5038627e-06 9.264061e-08 3.7208227e-07 6.3037223e-06
0000e0 32 c4 51 36 4e 74 8f 35 f5 be 24 34 57 32 76 34
       3.1257628e-06 1.0688179e-06 1.534316e-07 2.2928849e-07
0000f0 15 75 36 36 25 b3 05 34 15 c0 d6 34 04 d6 94 33
       2.7188264e-06 1.2451763e-07 4.0000364e-07 6.930716e-08
000100 25 b3 05 34 df b8 77 36 97 17 03 36 03 48 88 35
       1.2451763e-07 3.6913477e-06 1.9534252e-06 1.0153748e-06
000110 70 97 2f 34 02 eb 02 34 57 32 76 34 f5 be 24 34
       1.6353238e-07 1.2192689e-07 2.2928849e-07 1.534316e-07
000120 98 8c e0 34 15 c0 d6 34 05 eb 53 35 36 9c a4 35
       4.1825547e-07 4.0000364e-07 7.8945624e-07 1.2264416e-06
000130 aa 3b ba 33 05 eb 53 35 04 d6 94 33 aa 3b ba 33
       8.672153e-08 7.8945624e-07 6.930716e-08 8.672153e-08
000140 2a b2 4f 37 03 48 88 35 f5 be 24 34 20 e4 9e 36
       1.23796435e-05 1.0153748e-06 1.534316e-07 4.735324e-06
000150 04 2b b8 35 d7 f6 43 36 ab 4d 3a 34 28 57 16 33
       1.3721587e-06 2.9200944e-06 1.7350855e-07 3.5003865e-08
000160 cf d4 c8 35 ca 93 53 32 a1 e5 a5 35 eb 00 15 36
       1.4963097e-06 1.231542e-08 1.2360289e-06 2.2203265e-06
000170 ca 93 53 32 87 ca 13 36 49 75 81 32 2f 5a 09 35
       1.231542e-08 2.2022593e-06 1.5070912e-08 5.116771e-07
000180 d7 1c fb 33 8c 4d 36 33 28 57 16 33 ab 4d 3a 34
       1.1693344e-07 4.2445706e-08 3.5003865e-08 1.7350855e-07
000190 4e bb 66 36 a1 e5 a5 35 86 37 36 35 e0 21 f8 34
       3.4381696e-06 1.2360289e-06 6.788108e-07 4.6218247e-07
0001a0 8d 5e a8 36 86 37 36 35 eb 00 15 36 8d 5e a8 36
       5.0177973e-06 6.788108e-07 2.2203265e-06 5.0177973e-06
0001b0 93 a0 dc 36 2f 5a 09 35 ab 4d 3a 34 09 60 33 36
       6.575204e-06 5.116771e-07 1.7350855e-07 2.6728978e-06
0001c0 e7 12 ec 36 0f 4e 0a 36 69 3b 91 33 68 75 c4 34
       7.0355486e-06 2.0609039e-06 6.762895e-08 3.659327e-07
0001d0 b3 5f 79 34 00 33 08 34 e5 71 d2 34 b1 41 b4 33
       2.3224747e-07 1.268454e-07 3.9198417e-07 8.3938524e-08
0001e0 00 33 08 34 73 75 3f 34 87 5a b9 36 2f 3b 3d 36
       1.268454e-07 1.7830989e-07 5.5239684e-06 2.8197644e-06
0001f0 a5 74 86 35 02 67 9d 35 68 75 c4 34 69 3b 91 33
       1.0017726e-06 1.1727391e-06 3.659327e-07 6.762895e-08
000200 d0 68 ab 35 e5 71 d2 34 c3 d7 dd 34 f1 93 13 36
       1.2770997e-06 3.9198417e-07 4.1321445e-07 2.199082e-06
000210 3f e9 44 35 c3 d7 dd 34 b1 41 b4 33 3f e9 44 35
       7.335511e-07 4.1321445e-07 8.3938524e-08 7.335511e-07
000220 af bf 21 38 2f 3b 3d 36 69 3b 91 33 7d 30 da 36
       3.856391e-05 2.8197644e-06 6.762895e-08 6.502551e-06
000230 3f 7c e0 34 03 b0 e2 33 d7 0f d5 34 c5 d4 7a 35
       4.1813652e-07 1.05559614e-07 3.9685867e-07 9.344188e-07
000240 40 be fd 35 02 ef 04 35 77 fa 78 32 10 01 d3 31
       1.8905339e-06 4.9521634e-07 1.4492449e-08 6.141029e-09
000250 02 ef 04 35 db 46 36 35 f8 92 11 37 48 87 af 34
       4.9521634e-07 6.790339e-07 8.676892e-06 3.269472e-07
000260 7d c8 74 36 03 99 bc 35 c5 d4 7a 35 d7 0f d5 34
       3.6475533e-06 1.4051624e-06 9.344188e-07 3.9685867e-07
000270 28 97 9d 33 77 fa 78 32 21 75 6a 34 0f 43 45 33
       7.3383774e-08 1.4492449e-08 2.183556e-07 4.5928626e-08
000280 ce 15 71 33 21 75 6a 34 10 01 d3 31 ce 15 71 33
       5.6132016e-08 2.183556e-07 6.141029e-09 5.6132016e-08
000290 53 9a ef 36 48 87 af 34 d7 0f d5 34 f3 ac 8f 35
       7.1407208e-06 3.269472e-07 3.9685867e-07 1.0704665e-06
0002a0 05 cb b5 32 ee 83 85 32 7e 80 b1 35 86 8d 9d 36
       2.1163496e-08 1.5543232e-08 1.3224924e-06 4.69544e-06
0002b0 fb 7b 87 34 a2 40 d8 35 00 00 00 00 00 00 00 00
       2.5235917e-07 1.6112065e-06 0.0 0.0
0002c0 a2 40 d8 35 87 27 df 33 0b 2b 90 37 05 cb b5 32
       1.6112065e-06 1.0391437e-07 1.7186181e-05 2.1163496e-08
0002d0 b3 a9 d8 36 be 05 8a 36 86 8d 9d 36 7e 80 b1 35
       6.457057e-06 4.113389e-06 4.69544e-06 1.3224924e-06
0002e0 ee 83 85 32 00 00 00 00 a1 e4 1b 35 00 00 00 00
       1.5543232e-08 0.0 5.80747e-07 0.0
0002f0 ee 83 85 32 a1 e4 1b 35 00 00 00 00 ee 83 85 32
       1.5543232e-08 5.80747e-07 0.0 1.5543232e-08
000300 25 fa 22 38 05 cb b5 32 7e 80 b1 35 f9 e6 01 37
       3.8856775e-05 2.1163496e-08 1.3224924e-06 7.742777e-06
000310 88 ec da 34 96 f4 e7 35 59 96 bc 33 2b 58 c2 34
       4.0777763e-07 1.7282025e-06 8.78178e-08 3.6199467e-07
000320 ec e6 31 35 84 56 aa 34 67 51 0f 35 87 ab a1 35
       6.6273674e-07 3.1727916e-07 5.339011e-07 1.2045356e-06
000330 84 56 aa 34 d1 09 25 35 0d e9 14 35 c4 f9 6a 34
       3.1727916e-07 6.1481575e-07 5.547343e-07 2.1883812e-07
000340 32 a4 fd 34 28 57 2b 34 2b 58 c2 34 59 96 bc 33
       4.724439e-07 1.5957323e-07 3.6199467e-07 8.78178e-08
000350 4e 66 d7 35 67 51 0f 35 39 f0 15 34 e2 f8 ff 33
       1.6048523e-06 5.339011e-07 1.3964099e-07 1.1919634e-07
000360 bc a2 35 36 39 f0 15 34 87 ab a1 35 bc a2 35 36
       2.7065826e-06 1.3964099e-07 1.2045356e-06 2.7065826e-06
000370 f7 38 f2 35 c4 f9 6a 34 59 96 bc 33 f0 0d 73 35
       1.8046984e-06 2.1883812e-07 8.78178e-08 9.0544836e-07

exp_avg f4 [8]
000000 49 09 82 b8 3d c4 ec b8 fc 61 1c b9 d7 da 7d b8
       -6.2006126e-05 -0.00011289909 -0.00014913821 -6.052371e-05
000010 e8 fb 90 b8 dd 53 25 b8 9e 2b 30 b8 d4 b4 91 b8
       -6.913376e-05 -3.941717e-05 -4.200229e-05 -6.947821e-05

exp_avg_sq f4 [8]
000000 68 f4 5d 37 45 51 75 38 ea d3 3b 38 46 1b 60 37
       1.3229532e-05 5.848824e-05 4.4781635e-05 1.33577905e-05
000010 a5 92 da 37 25 c0 bc 37 cb 19 74 38 9b d0 0f 37
       2.6055912e-05 2.250082e-05 5.8198155e-05 8.572034e-06

exp_avg f4 [8, 8]
000000 48 da 15 b7 6d 8c 0e 37 52 3e ba b8 9f 8f e3 34
       -8.931915e-06 8.496555e-06 -8.880779e-05 4.2386543e-07
000010 a9 e2 ab b8 68 47 79 36 72 82 07 37 3d 98 64 b8
       -8.196134e-05 3.7145455e-06 8.076999e-06 -5.450122e-05
000020 c1 69 3d b7 e3 61 a5 37 7c 4c da 37 1c 55 69 b6
       -1.1289901e-05 1.9715115e-05 2.6023241e-05 -3.4769246e-06
000030 ed 40 8f 36 2c 01 47 b7 c3 70 43 37 1b 4c 63 b7
       4.2692905e-06 -1.1861597e-05 1.164916e-05 -1.3547974e-05
000040 6c 63 ff b6 2a bc 08 37 74 83 02 b9 69 15 0c 36
       -7.6111664e-06 8.150042e-06 -0.00012446736 2.0874088e-06
000050 63 72 e1 b8 60 02 4b 37 cc 41 db 36 d8 a5 89 b8
       -0.00010750142 1.2100296e-05 6.5343684e-06 -6.56356e-05
000060 1b 88 57 b7 7c c7 9a 36 90 86 4a 37 42 3c 21 b7
       -1.2846688e-05 4.6127807e-06 1.20714685e-05 -9.610378e-06
000070 7d 3d f3 35 dc 20 3b b7 cd c0 d5 36 bf f2 85 b7
       1.8122806e-06 -1.1153719e-05 6.3703396e-06 -1.5967873e-05
000080 b7 bd 40 b8 f7 39 88 b8 e4 91 cd b6 e9 df 84 b8
       -4.5953053e-05 -6.495782e-05 -6.12646e-06 -6.335957e-05
000090 e7 ba 32 38 e6 95 1d 37 4e c0 9c b6 b5 21 cd b7
       4.2612573e-05 9.39283e-06 -4.6715495e-06 -2.44536e-05
0000a0 f7 d4 17 b8 f9 2b e2 b7 6f 58 fa 35 61 bc 4b b8
       -3.6199544e-05 -2.6961776e-05 1.8652189e-06 -4.8574413e-05
0000b0 1d 60 e7 37 0d 14 61 37 40 18 ee 36 06 3c eb b7
       2.7582102e-05 1.34157135e-05 7.095776e-06 -2.8042134e-05
0000c0 37 bc 08 37 bb 54 64 b7 b0 fe e5 35 8a 18 67 37
       8.150054e-06 -1.3609587e-05 1.7135953e-06 1.3774386e-05
0000d0 68 a9 1b b5 2e 83 13 b8 48 f8 a1 b7 f9 6e 24 37
       -5.798852e-07 -3.51697e-05 -1.930831e-05 9.801e-06
0000e0 2e 76 f0 b5 d5 e3 c0 b8 94 bc 78 b8 75 84 82 b7
       -1.7915788e-06 -9.1977105e-05 -5.9303435e-05 -1.5558888e-05
0000f0 27 17 04 37 9a 5c f7 b7 58 83 6e b8 69 70 46 37
       7.873204e-06 -2.9487815e-05 -5.6865945e-05 1.1827892e-05

exp_avg_sq f4 [8, 8]
000000 3b 6f f2 34 17 0c b0 35 f9 9f 94 37 23 63 8a 34
       4.5156943e-07 1.311654e-06 1.7717468e-05 2.5776635e-07
000010 91 21 66 37 67 19 aa 35 b5 6b 86 35 ba 73 d0 35
       1.3716884e-05 1.267338e-06 1.0015125e-06 1.5530889e-06
000020 73 ec 54 36 f7 fe ef 35 85 75 e6 35 51 36 22 36
       3.1728093e-06 1.7881092e-06 1.7170538e-06 2.4171497e-06
000030 fb 1b a9 34 0c 59 2e 33 0e a2 ef 33 5f 93 6c 36
       3.1499061e-07 4.059352e-08 1.1158782e-07 3.5252522e-06
000040 ec 01 8c 35 be ac 70 36 78 11 69 38 81 a0 6b 35
       1.0431372e-06 3.5863336e-06 5.5567798e-05 8.7777886e-07
000050 f5 7b 55 38 63 d2 86 36 89 9d 89 36 ac 9c 74 36
       5.08986e-05 4.0180034e-06 4.1012577e-06 3.6450028e-06
000060 0c 0d c6 35 92 25 38 35 2d c8 2b 35 8d a0 b1 35
       1.4755947e-06 6.8600013e-07 6.399376e-07 1.3234254e-06
000070 8f 18 32 34 f9 bc fb 32 cc 52 ec 33 6f 00 0e 36
       1.6586476e-07 2.930618e-08 1.1004667e-07 2.1159901e-06
000080 eb 4c e1 35 86 ed 07 37 7b c1 2e 37 88 9d 77 36
       1.6786192e-06 8.10193e-06 1.0416256e-05 3.6897563e-06
000090 ec 8f da 36 a9 eb ae 35 1d f8 12 36 f2 2c 38 36
       6.513661e-06 1.3032596e-06 2.1900116e-06 2.7444298e-06
0000a0 32 4a 98 36 d5 d2 e2 35 33 b0 16 36 8d 6a 6a 36
       4.5385905e-06 1.6899672e-06 2.2454303e-06 3.4930738e-06
0000b0 6a 51 30 36 d4 fe 45 35 29 88 a3 35 0e f8 b2 36
       2.6273433e-06 7.375904e-07 1.2184074e-06 5.3336908e-06
0000c0 0d 94 d3 34 6b 55 94 35 59 04 76 35 88 78 e1 34
       3.9409534e-07 1.1051719e-06 9.164847e-07 4.1997214e-07
0000d0 49 a8 dd 34 b5 21 2f 34 0a 6b b0 33 01 db 01 35
       4.12869e-07 1.6310408e-07 8.215109e-08 4.837494e-07
0000e0 c7 81 c9 35 56 b9 1b 38 0c a8 9c 37 4b 6d c2 35
       1.5013437e-06 3.7127487e-05 1.8674902e-05 1.4485935e-06
0000f0 39 57 64 37 00 29 68 37 60 c6 01 38 71 71 33 36
       1.3610167e-05 1.3837824e-05 3.0940748e-05 2.673911e-06

exp_avg f4 [8]
000000 7f f1 4f b8 32 d1 30 37 fd 31 88 b8 c2 97 8b 35
       -4.9577557e-05 1.0539125e-05 -6.4942964e-05 1.0400474e-06
000010 3f e0 1e b7 21 9a 80 b5 b0 5a 5c b7 fe cf 4d b8
       -9.469745e-06 -9.581601e-07 -1.3134137e-05 -4.9069517e-05

exp_avg_sq f4 [8]
000000 2a 2b 93 37 b0 d7 d3 36 e5 43 84 38 fe d2 4c 36
       1.7543865e-05 6.3133994e-06 6.306897e-05 3.0521182e-06
000010 6a 18 80 37 68 f6 a6 37 91 a4 47 36 66 ad 81 38
       1.5270158e-05 1.9903484e-05 2.97491e-06 6.183497e-05

exp_avg f4 [4, 8]
000000 54 5c 33 38 3c 39 11 b8 fd 8c 0c 38 f0 05 07 b8
       4.2762913e-05 -3.4623998e-05 3.3509907e-05 -3.2192038e-05
000010 19 26 06 38 d4 97 94 37 ff 8c 4c 37 f0 1f f5 38
       3.198357e-05 1.7713675e-05 1.2192176e-05 0.00011688459
000020 89 4a 2b 39 02 98 18 37 df 89 30 39 4c 3e 0d 37
       0.00016335597 9.095298e-06 0.00016836029 8.4187595e-06
000030 70 01 32 b9 18 32 02 b9 09 70 ef 37 0a 06 ce b8
       -0.00016975938 -0.00012416427 2.854319e-05 -9.82397e-05
000040 9f ea 3a 38 39 a3 d3 37 ad b6 94 37 a1 07 c5 37
       4.4564364e-05 2.5229167e-05 1.772804e-05 2.3487783e-05
000050 8e ff 5f 38 17 df 37 38 82 7d 41 b8 4d dc c5 b8
       5.3405347e-05 4.383837e-05 -4.6131674e-05 -9.434726e-05
000060 1a 70 83 b9 4f f4 94 34 8f 44 66 b9 a9 ab 8e 34
       -0.0002506979 2.7744906e-07 -0.0002196005 2.657446e-07
000070 a9 e3 b0 38 66 43 83 38 ae 32 b4 36 d4 b6 9e 38
       8.434739e-05 6.259121e-05 5.370318e-06 7.5680815e-05

exp_avg_sq f4 [4, 8]
000000 eb ea 5c 37 94 00 52 36 65 a2 9f 37 ae 46 5c 36
       1.3167718e-05 3.1292775e-06 1.9029898e-05 3.2823696e-06
000010 5d 05 88 37 c8 d2 b1 37 4b e2 fe 34 0c 15 e2 37
       1.621496e-05 2.1198197e-05 4.7475837e-07 2.69511e-05
000020 36 9a 87 38 54 ba 21 35 83 de 38 38 82 31 11 35
       6.466026e-05 6.0248317e-07 4.407625e-05 5.408875e-07
000030 4e bf 2e 38 bd 42 7c 37 46 db 90 34 eb 55 6e 38
       4.1663e-05 1.5035909e-05 2.6981633e-07 5.682364e-05
000040 17 a6 16 38 43 45 ea 34 b7 3c 8d 37 40 11 03 35
       3.591747e-05 4.363629e-07 1.6836782e-05 4.8826405e-07
000050 7e a6 0b 37 ae 40 d2 36 65 f9 51 34 95 30 6a 39
       8.32381e-06 6.2660174e-06 1.9555371e-07 0.00022334077
000060 cc 45 d9 38 4b fc 4a 34 4e a3 a2 38 7c 7c 75 34
       0.00010360367 1.89045e-07 7.75518e-05 2.286269e-07
000070 70 59 8d 37 71 07 10 37 74 fc d6 32 b9 89 18 38
       1.6850157e-05 8.584801e-06 2.5027681e-08 3.636789e-05

exp_avg f4 [4]
000000 09 d3 e7 37 1f ab 27 38 ea 29 8a b7 18 87 56 b8
       2.7635617e-05 3.997527e-05 -1.64704e-05 -5.114739e-05

exp_avg_sq f4 [4]
000000 05 42 06 39 ec 7c cd 38 52 b0 17 39 71 f4 a9 38
       0.0001280383 9.79843e-05 0.00014466167 8.104079e-05
