data.pth (torch, 4069 bytes, 6 tensors)

l1.weight f4 [8, 28]
0	0x3f088834	0.5333283
1	0x3ecf6d82	0.40513235
2	0xbde1e723	-0.11030414
3	0xbe538262	-0.20655206
4	0xbed1a0a0	-0.4094286
5	0xbea6c3b4	-0.32571185
6	0x3ec89b1a	0.39180833
7	0x3f018311	0.50590616
8	0xbde6e00f	-0.112732045
9	0xbecbf819	-0.3983772
10	0xbee0cc23	-0.43905744
11	0x3ed1999f	0.40937516
12	0xbee0d014	-0.4390875
13	0xbebc8982	-0.3682366
14	0xbed31805	-0.41229263
15	0xbe3cfe3d	-0.18456359
16	0x3ee7bff9	0.4526365
17	0x3ee36049	0.44409397
18	0xbd28e300	-0.04123211
19	0x3ee062a2	0.4382525
20	0x3f0ee007	0.5581059
21	0xbe95b1a8	-0.29237103
22	0x3ed87ac9	0.42281178
23	0x3f2baac0	0.6705742
24	0x3f47cac3	0.78043765
25	0x3e9dfbbf	0.3085613
26	0xbddd39ef	-0.108020656
27	0x3e381a4a	0.17978778
28	0x3f09575b	0.5364892
29	0xbd9e8476	-0.07740109
30	0xbe40c99c	-0.18826908
31	0xbf13e4e4	-0.57771134
32	0x3f3794d8	0.7171149
33	0xbec4274e	-0.38311237
34	0xbf08cbe7	-0.5343613
35	0xbe742f8a	-0.2384626
36	0xbef1a370	-0.47195005
37	0x3f26d3fd	0.6516722
38	0xbf484ca2	-0.7824193
39	0x3ebcf086	0.36902255
40	0xbf59262a	-0.8482386
41	0xbf354cfd	-0.708206
42	0xbf1ab99e	-0.6043948
43	0xbed0f7ec	-0.4081415
44	0xbe83356d	-0.25626698
45	0xbea0cc87	-0.31406042
46	0x3f076837	0.52893394
47	0x3e4a37ab	0.19747798
48	0xbe85bc89	-0.26120403
49	0x3f16b98e	0.58876884
50	0xbdcdfe15	-0.10058228
51	0xbe853d04	-0.26023114
52	0x3f388d4f	0.7209062
53	0x3d383b97	0.044978704
54	0xbd851ee2	-0.06500031
55	0x3ea77656	0.3270747
56	0x3f2b0799	0.6680847
57	0x3f04bc3a	0.5184971
58	0xbe4b197b	-0.19833939
59	0xbf10943c	-0.5647619
60	0xbea4a48a	-0.32156783
61	0xbe81bd55	-0.2533976
62	0x3ecf7663	0.4052001
63	0x3f2c58b7	0.6732287
64	0xbd5f3acd	-0.054499436
65	0xbec81b9b	-0.3908356
66	0xbee94e62	-0.45567614
67	0x3ea479d1	0.3212419
68	0xbf01b9fa	-0.506744
69	0xbf01b6ac	-0.5066936
70	0xbe8fb461	-0.28067306
71	0xbe93e4bd	-0.2888545
72	0x3f2cbe0a	0.67477477
73	0x3ef983f8	0.48733497
74	0xbee2e73a	-0.44317037
75	0x3f0199a8	0.50625086
76	0x3f1945f9	0.59872395
77	0xbe142566	-0.14467391
78	0x3f10ae3c	0.5651586
79	0x3f2f72b5	0.68534404
80	0x3f4254a2	0.7591039
81	0x3ec0c7a7	0.37652323
82	0xbc9f9a0c	-0.019482635
83	0x3f0d3a2b	0.5516688
84	0xbe38764d	-0.18013878
85	0xbe31196b	-0.17294852
86	0x3e7a52f7	0.24445711
87	0x3edd9e52	0.4328485
88	0x3f1d4028	0.6142602
89	0x3eadb2fc	0.33925617
90	0xbe5828df	-0.21109341
91	0xbe741bde	-0.23838755
92	0x3ed0a8ec	0.40753877
93	0x3f069a2a	0.52578986
94	0x3f03896b	0.5138156
95	0xbe64e8fd	-0.22354503
96	0x3ed58b86	0.4170801
97	0x3edad447	0.4274008
98	0x3eaaa095	0.3332564
99	0x3ede7070	0.43445158
100	0xbeb51fc6	-0.35375804
101	0xbdc9f6cd	-0.09861527
102	0x3ec4c32e	0.3843016
103	0x3e06029f	0.13086937
104	0xbd8352eb	-0.064123
105	0x3ecb538b	0.39712176
106	0xbe938b7d	-0.2881736
107	0xbdd99efc	-0.10626027
108	0xbf3267fe	-0.6968993
109	0xbdfdb80a	-0.12388618
110	0x3e776a33	0.24161606
111	0x3e0ed770	0.1394937
112	0xbe4db3bb	-0.20088093
113	0x3e8e575a	0.2780102
114	0x3ead9e21	0.33909705
115	0x3eb139ba	0.34614354
116	0xbecc3738	-0.3988588
117	0x3f1620de	0.586439
118	0x3ee5f538	0.4491365
119	0x3eadf915	0.33979097
120	0x3f195f45	0.59910995
121	0xbeb93fc1	-0.36181453
122	0x3f47cca8	0.78046656
123	0xbe6742ff	-0.2258415
124	0x3edf710c	0.43640935
125	0x3f338453	0.70123786
126	0x3e82ad0a	0.25522643
127	0x3ed77d97	0.42088005
128	0x3e866d38	0.26255202
129	0x3e90ab7b	0.2825583
130	0xbe329fd4	-0.17443782
131	0xbd9e3961	-0.07725788
132	0x3ee0e4e2	0.43924624
133	0xbe985ecd	-0.29759827
134	0x3eaced8a	0.33774978
135	0x3ecd22b4	0.4006554
136	0xbf0d8c68	-0.5529237
137	0xbe0149ef	-0.1262586
138	0x3eae6f59	0.34069327
139	0x37c4be08	2.3453511e-05
140	0xbc166f1c	-0.009181764
141	0xbe836cf8	-0.25669074
142	0x3e5eb190	0.21747422
143	0x3eabf1d1	0.3358293
144	0x3f0ed2af	0.5579023
145	0x3efcae87	0.49351904
146	0xbeb5f8c8	-0.35541368
147	0xbe1403d9	-0.14454593
148	0x3e51eed8	0.20501268
149	0x3ef09ec1	0.4699612
150	0x3eb59452	0.35464722
151	0xbe8bc0dc	-0.27295578
152	0x3ed936e7	0.424247
153	0x3ea21364	0.3165542
154	0x3eecf53b	0.46280846
155	0x3ed7d8e4	0.42157662
156	0xbe3c9780	-0.18417168
157	0xbdffadf3	-0.1248435
158	0x3ef81c2c	0.48458993
159	0xbcd9688b	-0.026539108
160	0xbe51327f	-0.20429419
161	0x3e90b3cc	0.28262174
162	0xbda3d2fb	-0.07999226
163	0xbe94af5b	-0.29040036
164	0xbf2d213f	-0.67628855
165	0xbe62d46f	-0.2215135
166	0x3e803552	0.2504068
167	0x3e4eb7f7	0.20187365
168	0xbe8955c4	-0.26823246
169	0x3f0461db	0.51711816
170	0x3e8d8da9	0.2764714
171	0x3f03216a	0.5122286
172	0xbeaee1d0	-0.34156656
173	0x3e81157c	0.25211704
174	0x3ef6f134	0.48230898
175	0x3f04dc6e	0.5189885
176	0x3eddf105	0.43347946
177	0xbec0c749	-0.37652043
178	0x3ededf9e	0.4352998
179	0xbe40dd77	-0.18834482
180	0x3f467823	0.77527064
181	0x3f224551	0.6338702
182	0x3e631a48	0.22177994
183	0x3dfcc274	0.123417765
184	0x3efc5762	0.49285418
185	0x3e5f64c4	0.21815783
186	0xbe1e2b71	-0.15446259
187	0xbe67c8c1	-0.22635175
188	0x3ea121a5	0.3147098
189	0x3da2499f	0.07924198
190	0x3e8682a1	0.26271537
191	0x3eb2bc0a	0.34909087
192	0xbf249623	-0.6429159
193	0xbe3ebd03	-0.1862679
194	0x3e86a1c9	0.26295307
195	0x37833ff9	1.5646207e-05
196	0xbe73656b	-0.23769157
197	0x3e5a85d3	0.21340112
198	0x3eef898a	0.4678462
199	0x3ec6db6c	0.3883928
200	0xbee561dc	-0.44801223
201	0x3eabf925	0.3358852
202	0x3eb8ca8a	0.36092025
203	0x3ee1291b	0.43976673
204	0x3e3c917c	0.18414873
205	0xbee56119	-0.44800642
206	0x3f0593cc	0.52178645
207	0xbdbcf3c7	-0.09226184
208	0x3f010d88	0.5041127
209	0x3f0ebf46	0.5576061
210	0x3ef9e2a0	0.48805714
211	0x3f070c45	0.52753097
212	0x3f091239	0.5354343
213	0x3e8439e5	0.2582542
214	0xbeaf70ae	-0.34265655
215	0x3d6fd805	0.05855562
216	0x3ea07b7f	0.3134422
217	0xbe940b5d	-0.2891492
218	0x3e9f8994	0.3115965
219	0x3ee4d59a	0.44694215
220	0xbe7c05fd	-0.2461166
221	0xbcee5ac5	-0.029096017
222	0x3e8c3328	0.2738278
223	0x3e4004db	0.18751852

l1.bias f4 [8]
0	0x3ee0cd71	0.4390674
1	0x3f5ae436	0.8550447
2	0x3f01b76f	0.5067052
3	0x3f326a41	0.6969338
4	0x3f0d8ae7	0.55290073
5	0x3f382116	0.71925485
6	0x3f2494a5	0.64289314
7	0x3ee561e9	0.44801262

l2.weight f4 [8, 8]
0	0xbf353be0	-0.70794487
1	0x3f49784c	0.78699183
2	0xbeea1573	-0.4571949
3	0x3f75f313	0.96074027
4	0x3f1c9f78	0.6118083
5	0x3f7f132f	0.99638647
6	0x3f0d2be8	0.5514512
7	0xbf3ac723	-0.7296011
8	0x3f81e59c	1.0148196
9	0x3f9c4f75	1.2211748
10	0x3f7f8c1d	0.9982317
11	0x3f0695c3	0.5257227
12	0xbf33e428	-0.70270014
13	0x3f09bc69	0.53803116
14	0xbeabd887	-0.33563635
15	0xbf77e831	-0.9683867
16	0xbf2c2b27	-0.67253345
17	0x3e9d7b29	0.30758026
18	0xbf0d18d9	-0.5511604
19	0x3f5a89fb	0.8536679
20	0x3f4a8f72	0.7912513
21	0x3f8176cb	1.0114378
22	0x3e265019	0.16241492
23	0x3f085737	0.5325808
24	0xbd1c425b	-0.03814922
25	0xbdfe3994	-0.12413326
26	0xbcab5b84	-0.020917661
27	0xbdf71cf9	-0.12066073
28	0xbeb24238	-0.34816146
29	0xbe5b492c	-0.21414632
30	0x3e010cce	0.12602541
31	0x3cafe8cd	0.021473313
32	0x3e796888	0.24356282
33	0xbf73af30	-0.9518919
34	0x3ebe2c28	0.37143064
35	0x3e725615	0.2366565
36	0x3f887d09	1.0663158
37	0x3e8da42b	0.27664313
38	0x3f7748d8	0.96595526
39	0x3f813983	1.0095676
40	0x3f925fea	1.1435521
41	0x3e41be40	0.18920231
42	0x3fa357d0	1.2761173
43	0xbf027832	-0.50964653
44	0x3e7acc5f	0.24492024
45	0xbebb49e7	-0.3657982
46	0xbd577230	-0.052599132
47	0x3f883d93	1.0643791
48	0x3dafb4fd	0.08579443
49	0xbee40c26	-0.4454052
50	0x3e87b48c	0.26504934
51	0xbdf247e4	-0.11830118
52	0x3f85bdf4	1.0448594
53	0x3e6ef504	0.23335654
54	0x3f7f3ab4	0.9969895
55	0x3f86f9c9	1.0544978
56	0xbe9070ce	-0.28211063
57	0xbdf3d792	-0.11906351
58	0xbcc6411b	-0.024200967
59	0x3d5fd8e2	0.054650195
60	0xb8ec221f	-0.000112597125
61	0x3cf4a28b	0.029862663
62	0x3cc24d69	0.023718553
63	0x3e2218af	0.15829729

l2.bias f4 [8]
0	0x3e9cddbe	0.30637926
1	0x3f6251b4	0.8840592
2	0x3eca0254	0.394549
3	0xbe481f53	-0.19543199
4	0x3e9a7911	0.3017049
5	0x3f0bc64d	0.5459946
6	0x3d1f2cb9	0.03886101
7	0xbecfcbeb	-0.40585265

l3.weight f4 [4, 8]
0	0xbf68ba5e	-0.90909374
1	0xbed63902	-0.41840369
2	0xbf906a5a	-1.1282456
3	0xbe28bfbc	-0.16479391
4	0x3f2f4fb8	0.68481016
5	0x3eb7d7e4	0.359069
6	0x3f24460e	0.64169395
7	0x3e33cc03	0.17558293
8	0x3f622364	0.8833525
9	0x3ebe5852	0.37176758
10	0x3f330f3c	0.6994512
11	0xbe521325	-0.20515116
12	0xbf3c16b2	-0.7347213
13	0xbf357a7d	-0.7089003
14	0xbf920aeb	-1.1409582
15	0xbe97085e	-0.2949857
16	0xbd807a1f	-0.06273293
17	0xbf25bf36	-0.6474489
18	0x3f309d9b	0.68990487
19	0x3dc5e632	0.09663047
20	0x3f1591ee	0.58425796
21	0xbea01b32	-0.31270748
22	0x3ed2e038	0.4118669
23	0xbe4de594	-0.20107108
24	0xbf55ce20	-0.83517647
25	0x3f3c2e5f	0.73508257
26	0xbf08aee5	-0.5339187
27	0x3d65e152	0.056123085
28	0xbeab3f04	-0.33446515
29	0x3f480071	0.78125674
30	0xbf15044d	-0.5820969
31	0xbe0e94fe	-0.13924024

l3.bias f4 [4]
0	0xbb10d759	-0.0022101013
1	0x3e1044e7	0.14088784
2	0x3ecf1779	0.40447596
3	0x3e76f7b8	0.24117935
