data.pth (torch, 10275 bytes, 18 tensors)

l1.weight f4 [8, 28]
0	0xbd770d6f	-0.060315546
1	0x3bf9d695	0.007624457
2	0x3dc9ec5b	0.09859534
3	0x3e0af6a3	0.13570647
4	0x3c5d1da9	0.013495841
5	0xbd2ed94b	-0.042687695
6	0x3ba7e135	0.0051232823
7	0xbe11de51	-0.14244963
8	0x3e33c34d	0.1755497
9	0xbc6539d1	-0.013990835
10	0x3dc078f6	0.093980715
11	0xbe35af07	-0.17742549
12	0xbe030e53	-0.12798433
13	0xbd0cb1dd	-0.03434931
14	0x3dc57219	0.09640903
15	0xbd7e2255	-0.06204446
16	0x3d874604	0.06605151
17	0x3d4cfe37	0.050047126
18	0xbd935311	-0.07193578
19	0xbd5498fe	-0.051903717
20	0xbd9b871f	-0.07594132
21	0xbd52d309	-0.05147079
22	0x3e2929b0	0.16519809
23	0xbc9524fa	-0.018206108
24	0x3d9673d5	0.07346312
25	0xbc62311a	-0.013805652
26	0x3dda9e80	0.10674763
27	0xbddbae99	-0.10726661
28	0xbe64b59f	-0.22334908
29	0xbe803b8b	-0.25045428
30	0xbd35ab7e	-0.044353
31	0xbd1373c5	-0.03599908
32	0x3fcee823	1.6164593
33	0xbe2facfd	-0.17155834
34	0xbd10aacc	-0.035319135
35	0xbdf15512	-0.11783804
36	0xbe6ff6ac	-0.23433942
37	0x3f7008d6	0.9376348
38	0xbe89b26e	-0.26893944
39	0xbe34e1a7	-0.17664205
40	0xbe8ba69c	-0.2727555
41	0xbe88625a	-0.26637536
42	0xbdd83b13	-0.105581425
43	0xbdd41873	-0.10356226
44	0xbe5ed716	-0.21761736
45	0x3dbc7ebd	0.09203861
46	0x3f8f890d	1.12137
47	0x3c555e1a	0.013022924
48	0xbbac5af9	-0.005259868
49	0x3f90f4c5	1.1324698
50	0xbde7cdc0	-0.113185406
51	0xbe254771	-0.16140534
52	0xbecba18b	-0.39771685
53	0x3b1848a3	0.0023236654
54	0xbcc2f9cc	-0.023800753
55	0xb85dfff2	-5.2928874e-05
56	0x3c333b3e	0.010939417
57	0x3be294e3	0.0069147213
58	0xbccd02ba	-0.025025714
59	0xbe346b9d	-0.17619176
60	0xbcd06e9d	-0.02544337
61	0x3d36027e	0.04443597
62	0x3e15084d	0.14553948
63	0xbe0126c9	-0.12612452
64	0xbe1a6af9	-0.1507987
65	0x3e1f1588	0.15535557
66	0x3e08913c	0.13336653
67	0x3e0a4fbf	0.13506983
68	0x3d6a25c9	0.05716494
69	0xbe1d67c6	-0.15371618
70	0x3da42cae	0.080163345
71	0x3dbc0fb2	0.09182681
72	0xbe3dd328	-0.18537581
73	0xbd2aefec	-0.041732714
74	0x3e198048	0.14990342
75	0x3d8f31e8	0.06991941
76	0xbe40a5fb	-0.18813317
77	0xbddf54f0	-0.109048724
78	0xbdd7ca48	-0.10536629
79	0xbe1b26e1	-0.1515155
80	0x3df79ffd	0.12091062
81	0x3d3b08c7	0.045662668
82	0xbe0ec039	-0.13940515
83	0x3d98c482	0.07459356
84	0x3f3492d5	0.7053655
85	0x3cf09cf1	0.02937171
86	0x3e8611e2	0.26185519
87	0x3ee1c23c	0.44093502
88	0xbf4767cb	-0.7789275
89	0x3ecf549b	0.40494236
90	0xbefed784	-0.497738
91	0xbe24f78a	-0.16110054
92	0x3f0c6ee9	0.54856735
93	0xbf06b896	-0.52625406
94	0x3f6a19e0	0.9144573
95	0x3f13a64c	0.57675624
96	0x3f6020e3	0.8755018
97	0x3f5d422c	0.86429095
98	0x3f3129d9	0.6920448
99	0x3f03916e	0.51393783
100	0xbf0428ed	-0.5162495
101	0xbe3f4568	-0.1867882
102	0xbec4e8ad	-0.38458768
103	0x3f11af33	0.5690796
104	0xbe7d118a	-0.24713722
105	0xbf175439	-0.5911289
106	0xbea4ed46	-0.32212275
107	0xbe38d47e	-0.1804981
108	0x3f8a0d53	1.0785316
109	0x3ed7d385	0.42153564
110	0x3edc5984	0.43037045
111	0x3e994990	0.29938936
112	0x3f23ae85	0.6393817
113	0x3e7c1de1	0.24620773
114	0x3d6099c0	0.054834127
115	0xbf0c0354	-0.5469258
116	0x3edde055	0.43335214
117	0xbe82ac0a	-0.2552188
118	0xbecf839c	-0.40530097
119	0xbe0aafc1	-0.13543607
120	0xbe1001fe	-0.1406326
121	0x3ef144cc	0.471228
122	0xbf04007a	-0.5156323
123	0x3eb6b876	0.35687608
124	0xbf2fa9ca	-0.6861845
125	0xbf11e2ef	-0.569869
126	0xbe7a5d70	-0.24449706
127	0xbe93ab25	-0.2884151
128	0xbf0198e3	-0.5062391
129	0xbf056203	-0.5210268
130	0x3ebc64da	0.36795694
131	0x3ee97e23	0.45604047
132	0xbea07009	-0.31335476
133	0x3d967cda	0.07348032
134	0xbdd34cc8	-0.10317379
135	0xbe097b9d	-0.13426061
136	0x3f817a07	1.0115365
137	0x3f0941c7	0.53615993
138	0xbe374952	-0.17899063
139	0x3f0005df	0.5000896
140	0xbe95f4e4	-0.292884
141	0x3ee4ecc7	0.44711897
142	0x3e74305c	0.23846573
143	0x3e8ec17d	0.27881995
144	0xbd770593	-0.06030805
145	0x3f02f5d0	0.5115633
146	0xbcb9f45f	-0.022699533
147	0x3ee8f559	0.45499685
148	0x3f189cfb	0.59614533
149	0x3e15289d	0.14566274
150	0x3effd23f	0.49965093
151	0xbe94e8e3	-0.29083928
152	0x3ecc6549	0.39921024
153	0x3f1131f7	0.56716865
154	0x3e91f801	0.28509524
155	0x3ed61865	0.41815487
156	0x3eb487dc	0.35259902
157	0x3e2e85a6	0.1704317
158	0x3de8eb0f	0.11372959
159	0xbe55735d	-0.20844789
160	0x3e8783ec	0.26467836
161	0x3d036391	0.032077376
162	0x3e9f2ac7	0.31087324
163	0x3e86f4a8	0.26358533
164	0xbf3d1193	-0.7385494
165	0xbe1e842d	-0.15480109
166	0x3efc741d	0.49307337
167	0x3cd6e5b6	0.026232582
168	0xbb95ba36	-0.004569317
169	0x3f0e3e9d	0.5556429
170	0x3dabbac9	0.08385236
171	0xbe95b0da	-0.2923649
172	0xbe306c8f	-0.17228912
173	0xbdb66d23	-0.08907535
174	0x3f115541	0.5677071
175	0x3f2d656b	0.67732877
176	0xbe485b48	-0.19566071
177	0xbc945cb8	-0.018110618
178	0xbe91c707	-0.28472158
179	0xbd8b3062	-0.06796338
180	0xbe91c589	-0.2847102
181	0xbe91c6b5	-0.28471914
182	0xbe21eeb8	-0.1581372
183	0xbe671b9a	-0.22569123
184	0x3f468197	0.7754149
185	0x3ec464ba	0.38358098
186	0xbd81cdb3	-0.06338062
187	0x3d8a84a4	0.067635804
188	0x3f1a984c	0.60388637
189	0xbdd0d3f6	-0.10196678
190	0x3f209d8d	0.62740403
191	0x3f2ca99e	0.67446315
192	0xbeb69cb5	-0.35666433
193	0x3db6d0c6	0.08926539
194	0xbe124a21	-0.1428609
195	0x3e29c9fc	0.16580957
196	0xbcc4a0c9	-0.02400245
197	0x3f1dd011	0.6164561
198	0x3ea11933	0.31464538
199	0x3e81a76d	0.25323048
200	0x3ecf538a	0.40493423
201	0x3eb5edc7	0.35532972
202	0x3f23e5ff	0.6402282
203	0x3f17117f	0.5901107
204	0x3ebdee0c	0.37095678
205	0x3ece7cdd	0.40329638
206	0x3f19de7a	0.601051
207	0xbeaaebcc	-0.33383024
208	0x3f1f9e1a	0.6235062
209	0x3ee000a3	0.43750486
210	0x3ea66357	0.32497665
211	0x3e433c74	0.1906603
212	0x3f022b1d	0.50847036
213	0x3e9edc27	0.31027338
214	0xba9050b5	-0.0011010381
215	0xbeb11a7b	-0.34590515
216	0x3ed67553	0.41886386
217	0x3e861a99	0.26192167
218	0x3f056d37	0.52119774
219	0x3f173ca9	0.59076935
220	0xbf2d36c7	-0.6766171
221	0xbea33c5c	-0.31881988
222	0x3e4c00fe	0.19922253
223	0x3e7cda9b	0.24692766

l1.bias f4 [8]
0	0xbe2cf7bf	-0.16891383
1	0x3ecb9959	0.39765432
2	0xbe6cd007	-0.23126231
3	0x3f692ccb	0.91083974
4	0x3f2fa9ce	0.68618476
5	0x3f3d0fee	0.7385243
6	0x3e91c3ee	0.28469795
7	0x3f2d3700	0.6766205

l2.weight f4 [8, 8]
0	0x3d8247e8	0.06361371
1	0x3f50eab1	0.8160811
2	0xbd04b040	-0.032394648
3	0x3f37035f	0.7148952
4	0x3f201c4d	0.62543184
5	0x3f369c53	0.7133228
6	0xbf880875	-1.0627581
7	0x3e923276	0.28554124
8	0xbd8cb365	-0.06870154
9	0xbf723a64	-0.9462035
10	0x3d14dc70	0.036343038
11	0x3ee4f696	0.4471938
12	0xbf955693	-1.1667045
13	0x3f83f901	1.0310365
14	0x3fbb389d	1.4626652
15	0x3f8ab463	1.08363
16	0x3e01cd8c	0.12676066
17	0xbf10d378	-0.56572676
18	0xbe2ad65e	-0.16683337
19	0x3f8c0a15	1.0940577
20	0xbadf51b0	-0.0017037895
21	0x3efe93ce	0.4972214
22	0xbf2cfd6e	-0.67574203
23	0x3dc3fc52	0.09569611
24	0x3e8d4c84	0.2759744
25	0xbe96b7a0	-0.2943697
26	0xbe8f9f9e	-0.28051466
27	0x3f968bc1	1.17614
28	0x3f8c2b68	1.0950747
29	0xbf942393	-1.1573356
30	0x3ea3cb81	0.319912
31	0xbf15b902	-0.58485425
32	0x3e044563	0.12917094
33	0xbed73906	-0.42035693
34	0x3c955abf	0.018231748
35	0x3ede22e5	0.43385997
36	0xbef928ee	-0.4866404
37	0x3f498f08	0.78733873
38	0xbec61a39	-0.3869188
39	0x3eadc75e	0.33941168
40	0xbe60d5ca	-0.21956554
41	0x3f8064e1	1.0030786
42	0x3e8250ae	0.2545218
43	0xbf20b801	-0.6278077
44	0x3e285466	0.16438445
45	0x3f89332a	1.0718739
46	0x3f6c3986	0.92275274
47	0x3fba3aa7	1.4549149
48	0xba8b899f	-0.0010645873
49	0xbea39543	-0.31949815
50	0xbe25608c	-0.16150111
51	0x3f47eebd	0.7809866
52	0xbf610537	-0.8789858
53	0x3f83783f	1.0271071
54	0xbf787059	-0.9704643
55	0x3f03ac78	0.5143504
56	0x3e1e08f8	0.15433109
57	0x3c18f620	0.0093360245
58	0xbe816c63	-0.25278005
59	0xbeaa30d2	-0.33240372
60	0xbedbb87e	-0.42914194
61	0xbea0a9f7	-0.31379673
62	0x3e6d44ee	0.23170826
63	0x3d86f128	0.06588966

l2.bias f4 [8]
0	0x3f4c8336	0.7988771
1	0xbcf571ef	-0.029961554
2	0xbcd6b344	-0.026208527
3	0x3c534343	0.012894454
4	0xbaf9c77f	-0.0019056647
5	0x3f718d74	0.94356465
6	0xbd7be04d	-0.061493207
7	0xbe8fb505	-0.28067794

l3.weight f4 [4, 8]
0	0xbf968577	-1.175948
1	0x3f41e1eb	0.7573535
2	0xbf2cc157	-0.67482513
3	0xbf1db2e5	-0.61601096
4	0xbe4cd36e	-0.20002529
5	0x3ef8f5aa	0.48624927
6	0xbf7c93d6	-0.9866308
7	0xbe95e8ce	-0.29279178
8	0x3f486b5f	0.78288835
9	0xbf947a04	-1.1599736
10	0xbfb5befb	-1.4198908
11	0xbf791450	-0.9729662
12	0xbf1a12a4	-0.60184693
13	0x3f8142a3	1.0098461
14	0xbfe1bb5f	-1.7635306
15	0xbe389532	-0.18025663
16	0x3ece7af6	0.40328187
17	0x3e9a048d	0.30081597
18	0x3f0f434d	0.5596207
19	0xbf9466a8	-1.1593828
20	0x3e901d8a	0.28147537
21	0xbf02ce58	-0.51096106
22	0x3f9d8917	1.2307462
23	0x3d684430	0.056705654
24	0x3ebf4f15	0.37365022
25	0xbf437953	-0.76357
26	0x3f685211	0.90750223
27	0x3f7cedca	0.9880034
28	0xbea0ede0	-0.31431484
29	0xbf8f1d54	-1.1180825
30	0xbfae4cec	-1.3617225
31	0x3e170b62	0.14750436

l3.bias f4 [4]
0	0xbe8e4b66	-0.277919
1	0x3f76e414	0.9644177
2	0xbf05cb45	-0.5226329
3	0x3e158470	0.14601302

exp_avg f4 [8, 28]
0	0x00000000	0.0
1	0x00000000	0.0
2	0x00000004	6e-45
3	0x00000004	6e-45
4	0x00000000	0.0
5	0x00000004	6e-45
6	0x00000000	0.0
7	0x00000000	0.0
8	0x00000004	6e-45
9	0x00000000	0.0
10	0x00000000	0.0
11	0x00000000	0.0
12	0x00000000	0.0
13	0x00000000	0.0
14	0x00000004	6e-45
15	0x00000004	6e-45
16	0x00000000	0.0
17	0x00000000	0.0
18	0x00000000	0.0
19	0x00000000	0.0
20	0x00000000	0.0
21	0x00000000	0.0
22	0x00000000	0.0
23	0x00000000	0.0
24	0x00000000	0.0
25	0x00000000	0.0
26	0x00000004	6e-45
27	0x00000004	6e-45
28	0x328d775f	1.6468844e-08
29	0x108fe2c0	5.675292e-29
30	0x333619ce	4.2398646e-08
31	0x3483d6ae	2.4556851e-07
32	0xb63286cb	-2.6602527e-06
33	0x13e95c90	5.8908743e-27
34	0x108fe2c0	5.675292e-29
35	0x34bac724	3.4790094e-07
36	0x13e95c90	5.8908743e-27
37	0xb71c9840	-9.333773e-06
38	0x358b6a6b	1.0387279e-06
39	0x328d775f	1.6468844e-08
40	0x359121aa	1.0813139e-06
41	0x35837a3c	9.795835e-07
42	0x3483d6ae	2.4556851e-07
43	0x333619ce	4.2398646e-08
44	0x108fe2c0	5.675292e-29
45	0x108fe2c0	5.675292e-29
46	0xb48a1706	-2.5721255e-07
47	0x00000000	0.0
48	0x34bac724	3.4790094e-07
49	0xb48a1706	-2.5721255e-07
50	0x34bac724	3.4790094e-07
51	0x34bac724	3.4790094e-07
52	0x352d19de	6.4485164e-07
53	0x328d775f	1.6468844e-08
54	0x333619ce	4.2398646e-08
55	0xb2480af1	-1.164402e-08
56	0x00000004	6e-45
57	0x00000004	6e-45
58	0x00000000	0.0
59	0x00000000	0.0
60	0x00000000	0.0
61	0x00000000	0.0
62	0x00000000	0.0
63	0x00000000	0.0
64	0x00000000	0.0
65	0x00000000	0.0
66	0x00000000	0.0
67	0x00000004	6e-45
68	0x00000000	0.0
69	0x00000000	0.0
70	0x00000000	0.0
71	0x00000000	0.0
72	0x00000000	0.0
73	0x00000000	0.0
74	0x00000004	6e-45
75	0x00000004	6e-45
76	0x00000000	0.0
77	0x00000004	6e-45
78	0x00000000	0.0
79	0x00000000	0.0
80	0x00000004	6e-45
81	0x00000004	6e-45
82	0x00000000	0.0
83	0x00000004	6e-45
84	0xb4c168f7	-3.6025423e-07
85	0x35386c36	6.870281e-07
86	0xb4060f77	-1.2485349e-07
87	0xb4784ecc	-2.3125466e-07
88	0x338fcb85	6.6959764e-08
89	0xb4af421e	-3.2644397e-07
90	0x3538f12e	6.8896304e-07
91	0x3498e8e9	2.848167e-07
92	0xb4af421e	-3.2644397e-07
93	0x367ae1c8	3.7384325e-06
94	0xb61f8b38	-2.3773882e-06
95	0xb4c05f08	-3.583193e-07
96	0xb65fc285	-3.3342815e-06
97	0xb6165443	-2.2400789e-06
98	0xb4784ecc	-2.3125466e-07
99	0xb4060f77	-1.2485349e-07
100	0x3538f12e	6.8896304e-07
101	0x3538f12e	6.8896304e-07
102	0x32900e04	1.677018e-08
103	0xb104f76d	-1.9349173e-09
104	0x3498e8e9	2.848167e-07
105	0x32900e04	1.677018e-08
106	0x3498e8e9	2.848167e-07
107	0x3498e8e9	2.848167e-07
108	0xb736cf8e	-1.089637e-05
109	0xb4c05f08	-3.583193e-07
110	0xb4060f77	-1.2485349e-07
111	0xb631bdb5	-2.648548e-06
112	0xb4855674	-2.4836083e-07
113	0x3368c8f5	5.419948e-08
114	0x33590bd2	5.0535e-08
115	0x35a87bab	1.2552968e-06
116	0xb5909746	-1.0772862e-06
117	0x33d0da4b	9.725462e-08
118	0x33756653	5.713657e-08
119	0x3494dc26	2.7727327e-07
120	0x33d0da4b	9.725462e-08
121	0xb6a32c21	-4.862916e-06
122	0x361a37f0	2.2980348e-06
123	0xb483c2c8	-2.4542373e-07
124	0x354203a9	7.227596e-07
125	0x3611d9f3	2.1733547e-06
126	0x35a87bab	1.2552968e-06
127	0x33590bd2	5.0535e-08
128	0x33756653	5.713657e-08
129	0x33756653	5.713657e-08
130	0xb3d6d02e	-1.0003019e-07
131	0xb149d5de	-2.937092e-09
132	0x3494dc26	2.7727327e-07
133	0xb3d6d02e	-1.0003019e-07
134	0x3494dc26	2.7727327e-07
135	0x3494dc26	2.7727327e-07
136	0xb733149e	-1.0674032e-05
137	0xb483c2c8	-2.4542373e-07
138	0x33590bd2	5.0535e-08
139	0xb46e26c6	-2.2179583e-07
140	0x33c1572d	9.00312e-08
141	0x34458539	1.8395521e-07
142	0xb3c48572	-9.151235e-08
143	0xb5d15287	-1.5595732e-06
144	0xb630f4ca	-2.636853e-06
145	0xb469fdcc	-2.1792147e-07
146	0xb2ee25ca	-2.7724031e-08
147	0x33aac9d2	7.952953e-08
148	0xb469fdcc	-2.1792147e-07
149	0xb65f3ef8	-3.3266242e-06
150	0xb65d9f1e	-3.3024185e-06
151	0x33c1572d	9.00312e-08
152	0xb6382c9d	-2.7444105e-06
153	0xb6517d67	-3.121642e-06
154	0xb5d15287	-1.5595732e-06
155	0xb3c48572	-9.151235e-08
156	0x34458539	1.8395521e-07
157	0xb2ee25ca	-2.7724031e-08
158	0xb48997e1	-2.5628745e-07
159	0x00000004	6e-45
160	0x349c576e	2.9120878e-07
161	0xb48997e1	-2.5628745e-07
162	0x33aac9d2	7.952953e-08
163	0x349c576e	2.9120878e-07
164	0x362bd396	2.5604145e-06
165	0x33c1572d	9.00312e-08
166	0xb3c48572	-9.151235e-08
167	0x350dda75	5.284449e-07
168	0xb308b477	-3.18291e-08
169	0xb6a55e0c	-4.9283317e-06
170	0x32ff0561	2.9688353e-08
171	0x34b4b21a	3.36572e-07
172	0xb3b1cdc7	-8.2796355e-08
173	0x2c9396ac	4.1947192e-12
174	0xb6418057	-2.8833945e-06
175	0xb609a300	-2.050947e-06
176	0x2c9396ac	4.1947192e-12
177	0xb52d91db	-6.465977e-07
178	0x34d19578	3.9038036e-07
179	0xb2f2661b	-2.821894e-08
180	0x352eff5b	6.519164e-07
181	0x34d8bbea	4.036986e-07
182	0x34b4b21a	3.36572e-07
183	0x32ff0561	2.9688353e-08
184	0xb6a53f08	-4.924721e-06
185	0xb6418057	-2.8833945e-06
186	0xb2c79ff9	-2.3239396e-08
187	0xb178169b	-3.61016e-09
188	0xb689505e	-4.092274e-06
189	0xb2c79ff9	-2.3239396e-08
190	0xb609a300	-2.050947e-06
191	0xb689505e	-4.092274e-06
192	0x3543a201	7.287891e-07
193	0xb2f2661b	-2.821894e-08
194	0x32ff0561	2.9688353e-08
195	0xb5f6a599	-1.8376624e-06
196	0x32ea0d32	2.7247186e-08
197	0xb5a08e2d	-1.1962308e-06
198	0xb2a0067d	-1.8629402e-08
199	0xb571e146	-9.010731e-07
200	0xb6346e23	-2.6886198e-06
201	0xb2cf2d36	-2.4118531e-08
202	0xb54ee934	-7.7080335e-07
203	0xb50e3b68	-5.298557e-07
204	0xb2cf2d36	-2.4118531e-08
205	0xb69d1482	-4.681352e-06
206	0xb596e4cc	-1.124246e-06
207	0x32dd74b8	2.5780864e-08
208	0xb51c3dcd	-5.820446e-07
209	0xb58f03aa	-1.0655397e-06
210	0xb571e146	-9.010731e-07
211	0xb2a0067d	-1.8629402e-08
212	0xb5a0c08f	-1.1976971e-06
213	0xb54ee934	-7.7080335e-07
214	0xb48f9d7d	-2.6750413e-07
215	0x30c9879c	1.4663217e-09
216	0xb58069a8	-9.567493e-07
217	0xb48f9d7d	-2.6750413e-07
218	0xb50e3b68	-5.298557e-07
219	0xb58069a8	-9.567493e-07
220	0x3683262a	3.908547e-06
221	0x32dd74b8	2.5780864e-08
222	0xb2a0067d	-1.8629402e-08
223	0x34376a88	1.7081959e-07

exp_avg_sq f4 [8, 28]
0	0x00000000	0.0
1	0x00000000	0.0
2	0x2f0d487d	1.2849628e-10
3	0x2e2cfd39	3.933318e-11
4	0x00000000	0.0
5	0x2d26fd3f	9.4922395e-12
6	0x00000000	0.0
7	0x00000000	0.0
8	0x2d26fd3f	9.4922395e-12
9	0x00000000	0.0
10	0x00000000	0.0
11	0x00000000	0.0
12	0x00000000	0.0
13	0x00000000	0.0
14	0x2e2cfd39	3.933318e-11
15	0x2f0d487d	1.2849628e-10
16	0x00000000	0.0
17	0x00000000	0.0
18	0x00000000	0.0
19	0x00000000	0.0
20	0x00000000	0.0
21	0x00000000	0.0
22	0x00000000	0.0
23	0x00000000	0.0
24	0x00000000	0.0
25	0x00000000	0.0
26	0x2f0d487d	1.2849628e-10
27	0x2e2cfd39	3.933318e-11
28	0x2d63dd0c	1.2952538e-11
29	0x2a9b6a04	2.7607094e-13
30	0x302152a4	5.86889e-10
31	0x310e8d3c	2.0744002e-09
32	0x30a810fb	1.2228435e-09
33	0x252e8683	1.5137669e-16
34	0x2a9b6a04	2.7607094e-13
35	0x30402382	6.989965e-10
36	0x252e8683	1.5137669e-16
37	0x33c81b8a	9.318235e-08
38	0x32136436	8.5793115e-09
39	0x2d63dd0c	1.2952538e-11
40	0x31fa4621	7.2839303e-09
41	0x32094bd5	7.991692e-09
42	0x310e8d3c	2.0744002e-09
43	0x302152a4	5.86889e-10
44	0x2a9b6a04	2.7607094e-13
45	0x2a9b6a04	2.7607094e-13
46	0x2f0673bd	1.2228348e-10
47	0x00000000	0.0
48	0x30402382	6.989965e-10
49	0x2f0673bd	1.2228348e-10
50	0x30402382	6.989965e-10
51	0x30402382	6.989965e-10
52	0x2fc091da	3.502823e-10
53	0x2d63dd0c	1.2952538e-11
54	0x302152a4	5.86889e-10
55	0x3115b3f0	2.1784636e-09
56	0x3215e551	8.725082e-09
57	0x31372394	2.6650229e-09
58	0x00000000	0.0
59	0x00000000	0.0
60	0x00000000	0.0
61	0x00000000	0.0
62	0x00000000	0.0
63	0x00000000	0.0
64	0x00000000	0.0
65	0x00000000	0.0
66	0x00000000	0.0
67	0x3186932b	3.9166443e-09
68	0x00000000	0.0
69	0x00000000	0.0
70	0x00000000	0.0
71	0x00000000	0.0
72	0x00000000	0.0
73	0x00000000	0.0
74	0x2e74f606	5.569769e-11
75	0x31372394	2.6650229e-09
76	0x00000000	0.0
77	0x2e74f606	5.569769e-11
78	0x00000000	0.0
79	0x00000000	0.0
80	0x32145f6c	8.63643e-09
81	0x3186932b	3.9166443e-09
82	0x00000000	0.0
83	0x311d2516	2.2867588e-09
84	0x33a53764	7.693487e-08
85	0x330f6034	3.338228e-08
86	0x32d8ce81	2.5239617e-08
87	0x33130904	3.4234304e-08
88	0x351fc319	5.951602e-07
89	0x331d45c4	3.6617863e-08
90	0x32964dd2	1.7497687e-08
91	0x3118d764	2.2241347e-09
92	0x331d45c4	3.6617863e-08
93	0x340a2437	1.2865426e-07
94	0x337b8e90	5.857015e-08
95	0x33105991	3.3609073e-08
96	0x33abc5df	7.9988006e-08
97	0x339aa682	7.2014714e-08
98	0x33130904	3.4234304e-08
99	0x32d8ce81	2.5239617e-08
100	0x32ae54b8	2.0294792e-08
101	0x32964dd2	1.7497687e-08
102	0x34962afb	2.797095e-07
103	0x32bdefca	2.211154e-08
104	0x31985254	4.433142e-09
105	0x34962afb	2.797095e-07
106	0x3118d764	2.2241347e-09
107	0x31985254	4.433142e-09
108	0x35108c01	5.384791e-07
109	0x33105991	3.3609073e-08
110	0x32d8ce81	2.5239617e-08
111	0x34b61a94	3.391948e-07
112	0x335d4d28	5.1525745e-08
113	0x3211f983	8.496843e-09
114	0x30b13588	1.289366e-09
115	0x333f6c03	4.456889e-08
116	0x342d22d1	1.6124547e-07
117	0x31db362c	6.3798975e-09
118	0x3123c696	2.3832505e-09
119	0x301bd1bf	5.668674e-10
120	0x31db362c	6.3798975e-09
121	0x33a23194	7.552731e-08
122	0x3337b746	4.2774694e-08
123	0x330f9825	3.3433157e-08
124	0x319f1483	4.629841e-09
125	0x32dd055a	2.573022e-08
126	0x333f6c03	4.456889e-08
127	0x30b13588	1.289366e-09
128	0x31529c3f	3.0647838e-09
129	0x3123c696	2.3832505e-09
130	0x33c37aa6	9.102705e-08
131	0x31fe879d	7.4077904e-09
132	0x308c74b5	1.0219511e-09
133	0x33c37aa6	9.102705e-08
134	0x301bd1bf	5.668674e-10
135	0x308c74b5	1.0219511e-09
136	0x350f05a0	5.3279837e-07
137	0x330f9825	3.3433157e-08
138	0x30b13588	1.289366e-09
139	0x344c1178	1.9005336e-07
140	0x30426e26	7.073332e-10
141	0x32469339	1.1558591e-08
142	0x33892fcb	6.388253e-08
143	0x33646ef9	5.3186316e-08
144	0x3477f827	2.3093945e-07
145	0x339b5cd7	7.2346374e-08
146	0x31d266a4	6.1234733e-09
147	0x31fef5b6	7.420307e-09
148	0x339b5cd7	7.2346374e-08
149	0x3406632c	1.2515801e-07
150	0x34316cf4	1.6524046e-07
151	0x30210efb	5.859275e-10
152	0x344646af	1.8465902e-07
153	0x342bcff3	1.6001268e-07
154	0x33646ef9	5.3186316e-08
155	0x33892fcb	6.388253e-08
156	0x3243f72b	1.1406693e-08
157	0x31d266a4	6.1234733e-09
158	0x3421ab1e	1.5056546e-07
159	0x2f057bfe	1.214033e-10
160	0x326f68f5	1.3935495e-08
161	0x3421ab1e	1.5056546e-07
162	0x31fef5b6	7.420307e-09
163	0x326f68f5	1.3935495e-08
164	0x33e3e76c	1.06126066e-07
165	0x30210efb	5.859275e-10
166	0x33892fcb	6.388253e-08
167	0x345b6a70	2.0434686e-07
168	0x30bbb622	1.3657806e-09
169	0x3443593a	1.819325e-07
170	0x2e7b971c	5.7205005e-11
171	0x310a89ec	2.0160043e-09
172	0x33f4a661	1.13923996e-07
173	0x2cefbac3	6.8135233e-12
174	0x33b05e86	8.2128324e-08
175	0x3303afc1	3.066066e-08
176	0x2cefbac3	6.8135233e-12
177	0x338713e3	6.290045e-08
178	0x317ab84d	3.648455e-09
179	0x3056f8e5	7.8206447e-10
180	0x31d80bb8	6.2877596e-09
181	0x316f6848	3.4838354e-09
182	0x310a89ec	2.0160043e-09
183	0x2e7b971c	5.7205005e-11
184	0x3442168a	1.8075858e-07
185	0x33b05e86	8.2128324e-08
186	0x33f88863	1.15732085e-07
187	0x30009a7b	4.678566e-10
188	0x33e77d22	1.0779537e-07
189	0x33f88863	1.15732085e-07
190	0x3303afc1	3.066066e-08
191	0x33e77d22	1.0779537e-07
192	0x3339a954	4.3227672e-08
193	0x3056f8e5	7.8206447e-10
194	0x2e7b971c	5.7205005e-11
195	0x3451a8e9	1.9526091e-07
196	0x322df5ae	1.0125786e-08
197	0x3381ef44	6.050553e-08
198	0x2d4436b6	1.1153458e-11
199	0x33958399	6.962291e-08
200	0x3402493e	1.2133839e-07
201	0x2ccf6f9d	5.8956854e-12
202	0x330db3ae	3.299254e-08
203	0x326b25bb	1.3687379e-08
204	0x2ccf6f9d	5.8956854e-12
205	0x33a6281a	7.737272e-08
206	0x330e0cba	3.3073526e-08
207	0x2bcb9541	1.4465444e-12
208	0x331e9954	3.6926693e-08
209	0x32cefda4	2.4096899e-08
210	0x33958399	6.962291e-08
211	0x2d4436b6	1.1153458e-11
212	0x339766df	7.0501976e-08
213	0x330db3ae	3.299254e-08
214	0x33b04ead	8.20995e-08
215	0x322dee7a	1.0124149e-08
216	0x33441823	4.565676e-08
217	0x33b04ead	8.20995e-08
218	0x326b25bb	1.3687379e-08
219	0x33441823	4.565676e-08
220	0x34157b53	1.3921571e-07
221	0x2bcb9541	1.4465444e-12
222	0x2d4436b6	1.1153458e-11
223	0x34686123	2.1642022e-07

exp_avg f4 [8]
0	0x00000004	6e-45
1	0xb703c67f	-7.854424e-06
2	0x00000004	6e-45
3	0xb77d3824	-1.5093046e-05
4	0xb7283e21	-1.0028046e-05
5	0xb770a411	-1.4343314e-05
6	0xb6af008f	-5.2154714e-06
7	0xb7197347	-9.146351e-06

exp_avg_sq f4 [8]
0	0x2f80d28a	2.343266e-10
1	0x33e05cbb	1.04476804e-07
2	0x32a0e87b	1.8732171e-08
3	0x35c95bde	1.5002404e-06
4	0x3574d46c	9.12062e-07
5	0x360d87dd	2.108972e-06
6	0x35131cc9	5.4803655e-07
7	0x35501f4d	7.7531587e-07

exp_avg f4 [8, 8]
0	0x80000004	-6e-45
1	0xb7013353	-7.700949e-06
2	0x80000004	-6e-45
3	0xb6979f52	-4.518698e-06
4	0xb69ea594	-4.7280428e-06
5	0xb682cffe	-3.8985154e-06
6	0x3660db68	3.3506312e-06
7	0xb66c9a20	-3.5256453e-06
8	0x80000004	-6e-45
9	0x35c9cb84	1.5034898e-06
10	0x00000004	6e-45
11	0xb50d6f12	-5.268822e-07
12	0x35a97f0d	1.2628458e-06
13	0xb663f435	-3.3967783e-06
14	0xb6b4ff45	-5.3941353e-06
15	0xb6aeb0cf	-5.2061873e-06
16	0x00000004	6e-45
17	0x3638968f	2.7505773e-06
18	0x80000004	-6e-45
19	0xb73b7865	-1.11741e-05
20	0xb697a722	-4.5196075e-06
21	0xb56f324b	-8.9107624e-07
22	0x3507bbe6	5.056485e-07
23	0xb525de94	-6.1791184e-07
24	0x00000000	0.0
25	0x349b5a6a	2.8936785e-07
26	0x00000000	0.0
27	0xb758adb6	-1.29150485e-05
28	0xb76ba649	-1.4045808e-05
29	0x361970c3	2.2864413e-06
30	0xb46541bf	-2.1351205e-07
31	0x36037cb5	1.959311e-06
32	0x00000004	6e-45
33	0xb40264d0	-1.2143869e-07
34	0x00000004	6e-45
35	0xb549c417	-7.5163683e-07
36	0x35c4994b	1.4647752e-06
37	0xb5b69743	-1.360408e-06
38	0x35144bac	5.5244413e-07
39	0xb5a121e8	-1.2005303e-06
40	0x80000004	-6e-45
41	0xb710e728	-8.636889e-06
42	0x00000004	6e-45
43	0x3652d257	3.1414872e-06
44	0xb696d6e3	-4.4953645e-06
45	0xb681c589	-3.8674957e-06
46	0xb648e4d6	-2.9935522e-06
47	0xb6bfefc1	-5.7201546e-06
48	0x00000000	0.0
49	0x3478da3d	2.3176194e-07
50	0x00000000	0.0
51	0xb6c4cd8c	-5.865184e-06
52	0x3696af21	4.490736e-06
53	0xb6711e8b	-3.5929577e-06
54	0x36abc41a	5.1190264e-06
55	0xb5fb7a0d	-1.8736479e-06
56	0x00000000	0.0
57	0x00000004	6e-45
58	0x00000000	0.0
59	0x2f97a263	2.7582123e-10
60	0x25d40df2	3.6785587e-16
61	0x32511163	1.2169354e-08
62	0x32a6d03a	1.9419634e-08
63	0x32b71664	2.1314186e-08

exp_avg_sq f4 [8, 8]
0	0x2e048480	3.013101e-11
1	0x32c600e3	2.3050637e-08
2	0x2fa206ed	2.947255e-10
3	0x36057ccf	1.9891193e-06
4	0x341b6598	1.447246e-07
5	0x349b6621	2.8945308e-07
6	0x33a72856	7.7838806e-08
7	0x346ff149	2.2346389e-07
8	0x2c03f4ab	1.8752038e-12
9	0x330509e9	3.097549e-08
10	0x30551e07	7.753162e-10
11	0x34c6359f	3.6919388e-07
12	0x34ada933	3.234687e-07
13	0x34496d1e	1.875928e-07
14	0x33077663	3.153981e-08
15	0x34058244	1.243398e-07
16	0x2b890c6c	9.737883e-13
17	0x32c0fcf1	2.2466766e-08
18	0x2ee392d0	1.0348844e-10
19	0x35bc7d43	1.4043547e-06
20	0x34df814e	4.1631068e-07
21	0x33d62ebe	9.973654e-08
22	0x33244b19	3.8252526e-08
23	0x33bbde80	8.7483386e-08
24	0x00000000	0.0
25	0x32372fc0	1.0662859e-08
26	0x00000000	0.0
27	0x3567844f	8.624674e-07
28	0x3525a118	6.170171e-07
29	0x32b62946	2.1206358e-08
30	0x30fb2343	1.8272676e-09
31	0x3306aec1	3.1358244e-08
32	0x2a8271fe	2.3171737e-13
33	0x30aad781	1.2430378e-09
34	0x2f8fe250	2.6172353e-10
35	0x33a95b79	7.8863145e-08
36	0x338ac99b	6.4627976e-08
37	0x32a3b24e	1.9056781e-08
38	0x32e0daf2	2.6176597e-08
39	0x3293e21a	1.7215871e-08
40	0x2cde9590	6.3262243e-12
41	0x3305df05	3.116931e-08
42	0x30dd3b73	1.6096763e-09
43	0x3481e10d	2.4191868e-07
44	0x347d3d10	2.3584676e-07
45	0x3468d6c1	2.1684811e-07
46	0x33f2b098	1.13011254e-07
47	0x347359f4	2.2663863e-07
48	0x00000000	0.0
49	0x3179ecab	3.63688e-09
50	0x00000000	0.0
51	0x33b0f3c2	8.239978e-08
52	0x3354a81b	4.9512987e-08
53	0x32dc4ac3	2.5645368e-08
54	0x32bc5967	2.1926736e-08
55	0x32f2f71a	2.8284877e-08
56	0x00000000	0.0
57	0x2460dcb2	4.8759194e-17
58	0x00000000	0.0
59	0x2624f466	5.723015e-16
60	0x29fd9c33	1.1262553e-13
61	0x2fb21c06	3.2397923e-10
62	0x312add99	2.486422e-09
63	0x3060d9ac	8.1800056e-10

exp_avg f4 [8]
0	0xb6a66b9d	-4.9597134e-06
1	0xb5afa9c4	-1.3087924e-06
2	0xb680c51f	-3.837645e-06
3	0xb6cdb025	-6.129982e-06
4	0xb47f8cc7	-2.379994e-07
5	0xb67ee217	-3.798055e-06
6	0xb58335b9	-9.775896e-07
7	0x31f43e75	7.108435e-09

exp_avg_sq f4 [8]
0	0x360309f1	1.9526308e-06
1	0x35832573	9.77116e-07
2	0x35ce3ecc	1.5366472e-06
3	0x34e577f0	4.274184e-07
4	0x34037f1f	1.2246572e-07
5	0x3573166d	9.055719e-07
6	0x336d963b	5.5317496e-08
7	0x31a75f71	4.87119e-09

exp_avg f4 [4, 8]
0	0x374d700f	1.2245043e-05
1	0xb74df471	-1.2275866e-05
2	0x3688e5a1	4.079848e-06
3	0x3425533f	1.5397107e-07
4	0x3524ad2a	6.134675e-07
5	0xb6843b45	-3.9408064e-06
6	0x367339b7	3.6243416e-06
7	0xab1823cb	-5.405092e-13
8	0xb750ac37	-1.2437863e-05
9	0x370cf6c0	8.402101e-06
10	0x36730271	3.6211243e-06
11	0x36b9c0f8	5.535894e-06
12	0x35f3f06b	1.8174882e-06
13	0xb7871883	-1.6104668e-05
14	0x35cd9e1a	1.5319704e-06
15	0x2a975ac2	2.6885964e-13
16	0x3725d306	9.883899e-06
17	0x35eb0db5	1.7512854e-06
18	0xb5905c9c	-1.0755789e-06
19	0x3737c006	1.0952359e-05
20	0xb67b6678	-3.746156e-06
21	0x378f332e	1.707076e-05
22	0xb6f52058	-7.3053343e-06
23	0x2a9a3a41	2.7396317e-13
24	0xb7230461	-9.716577e-06
25	0x360d6a42	2.1072487e-06
26	0xb6de9039	-6.6329053e-06
27	0xb78b62b6	-1.6616057e-05
28	0x35ae8bbf	1.3004682e-06
29	0x364524d0	2.9376715e-06
30	0x360eaad3	2.1259082e-06
31	0x1e38c4f0	9.781605e-21

exp_avg_sq f4 [4, 8]
0	0x35d57136	1.5902685e-06
1	0x35f23f99	1.8048914e-06
2	0x34d1f380	3.9106453e-07
3	0x33c3a52e	9.110441e-08
4	0x346cc2c8	2.2050074e-07
5	0x35ff452e	1.9019114e-06
6	0x32726b30	1.4110626e-08
7	0x2b8217cd	9.243662e-13
8	0x358e2426	1.0590345e-06
9	0x348dab22	2.6387812e-07
10	0x33d0aa4b	9.716731e-08
11	0x33962163	6.990992e-08
12	0x33d1cbf2	9.769418e-08
13	0x3627a6c1	2.4982003e-06
14	0x30fe71d9	1.851329e-09
15	0x29e2b545	1.00678614e-13
16	0x35cfe3bc	1.5488981e-06
17	0x35c80f90	1.490569e-06
18	0x351bdb17	5.806082e-07
19	0x34e8617a	4.328429e-07
20	0x34eef648	4.4510148e-07
21	0x35e1bd12	1.6818833e-06
22	0x333ef880	4.446383e-08
23	0x2a07eb88	1.2072125e-13
24	0x351fe66a	5.956741e-07
25	0x3502fa80	4.87933e-07
26	0x349b97ba	2.8981395e-07
27	0x359d6a64	1.1728375e-06
28	0x33eeea17	1.1125319e-07
29	0x35194088	5.7090847e-07
30	0x3175ee29	3.578757e-09
31	0x29cabbb7	9.0031654e-14

exp_avg f4 [4]
0	0x35cd4497	1.5293652e-06
1	0xb625c0f7	-2.4699236e-06
2	0x36821fd5	3.8780076e-06
3	0xb64572e5	-2.9422165e-06

exp_avg_sq f4 [4]
0	0x362aa3f5	2.542741e-06
1	0x36f37b38	7.256309e-06
2	0x36980a00	4.531117e-06
3	0x35e5f2ee	1.7132531e-06
